…
I1111 20:33:25.222923  5757 net.cpp:257] The NetState phase (0) differed from the phase (1) specified by a rule in layer mnist
I1111 20:33:25.222959  5757 net.cpp:257] The NetState phase (0) differed from the phase (1) specified by a rule in layer accuracy
I1111 20:33:25.223070  5757 net.cpp:42] Initializing net from parameters: 
name: "LeNet"
state {
  phase: TRAIN
}
layer {
  name: "mnist"
  type: "Data"
  top: "data"
  top: "label"
  include {
    phase: TRAIN
  }
  transform_param {
    scale: 0.00390625
  }
  data_param {
    source: "examples/mnist/mnist_train_lmdb"
    batch_size: 64
    backend: LMDB
  }
}
layer {
  name: "conv1"
  type: "Convolution"
  bottom: "data"
  top: "conv1"
  param {
    lr_mult: 1
  }
  param {
    lr_mult: 2
  }
  convolution_param {
    num_output: 20
    kernel_size: 5
    stride: 1
    weight_filler {
      type: "xavier"
    }
    bias_filler {
      type: "constant"
    }
  }
}
layer {
  name: "pool1"
  type: "Pooling"
  bottom: "conv1"
  top: "pool1"
  pooling_param {
    pool: MAX
    kernel_size: 2
    stride: 2
  }
}
layer {
  name: "conv2"
  type: "Convolution"
  bottom: "pool1"
  top: "conv2"
  param {
    lr_mult: 1
  }
  param {
    lr_mult: 2
  }
  convolution_param {
    num_output: 50
    kernel_size: 5
    stride: 1
    weight_filler {
      type: "xavier"
    }
    bias_filler {
      type: "constant"
    }
  }
}
layer {
  name: "slice"
  type: "Slice"
  bottom: "conv2"
  top: "conv2_1"
  top: "conv2_2"
  slice_param {
    axis: 1
  }
}
layer {
  name: "bilinear"
  type: "BilinearPatch"
  bottom: "conv2_1"
  bottom: "conv2_2"
  top: "bilinear1"
  bilinear_patch_param {
    patch_h: 4
    patch_w: 4
  }
}
layer {
  name: "conv3"
  type: "Convolution"
  bottom: "bilinear1"
  top: "conv3"
  param {
    name: "conv3_w"
    lr_mult: 1
  }
  param {
    name: "conv3_b"
    lr_mult: 2
  }
  convolution_param {
    num_output: 50
    kernel_size: 1
    stride: 1
    weight_filler {
      type: "xavier"
    }
    bias_filler {
      type: "constant"
    }
  }
}
layer {
  name: "ip1"
  type: "InnerProduct"
  bottom: "conv3"
  top: "ip1"
  param {
    lr_mult: 1
  }
  param {
    lr_mult: 2
  }
  inner_product_param {
    num_output: 500
    weight_filler {
      type: "xavier"
    }
    bias_filler {
      type: "constant"
    }
  }
}
layer {
  name: "relu1"
  type: "ReLU"
  bottom: "ip1"
  top: "ip1"
}
layer {
  name: "ip2"
  type: "InnerProduct"
  bottom: "ip1"
  top: "ip2"
  param {
    lr_mult: 1
  }
  param {
    lr_mult: 2
  }
  inner_product_param {
    num_output: 10
    weight_filler {
      type: "xavier"
    }
    bias_filler {
      type: "constant"
    }
  }
}
layer {
  name: "loss"
  type: "SoftmaxWithLoss"
  bottom: "ip2"
  bottom: "label"
  top: "loss"
}
I1111 20:33:25.223141  5757 layer_factory.hpp:74] Creating layer mnist
I1111 20:33:25.223165  5757 net.cpp:84] Creating Layer mnist
I1111 20:33:25.223173  5757 net.cpp:338] mnist -> data
I1111 20:33:25.223199  5757 net.cpp:338] mnist -> label
I1111 20:33:25.223212  5757 net.cpp:113] Setting up mnist
I1111 20:33:25.226011  5757 db.cpp:34] Opened lmdb examples/mnist/mnist_train_lmdb
I1111 20:33:25.226258  5757 data_layer.cpp:69] output data size: 64,1,28,28
I1111 20:33:25.226395  5757 net.cpp:120] Top shape: 64 1 28 28 (50176)
I1111 20:33:25.226405  5757 net.cpp:120] Top shape: 64 (64)
I1111 20:33:25.226413  5757 layer_factory.hpp:74] Creating layer conv1
I1111 20:33:25.226424  5757 net.cpp:84] Creating Layer conv1
I1111 20:33:25.226431  5757 net.cpp:380] conv1 <- data
I1111 20:33:25.226444  5757 net.cpp:338] conv1 -> conv1
I1111 20:33:25.226472  5757 net.cpp:113] Setting up conv1
I1111 20:33:25.314713  5757 net.cpp:120] Top shape: 64 20 24 24 (737280)
I1111 20:33:25.314759  5757 layer_factory.hpp:74] Creating layer pool1
I1111 20:33:25.314781  5757 net.cpp:84] Creating Layer pool1
I1111 20:33:25.314787  5757 net.cpp:380] pool1 <- conv1
I1111 20:33:25.314796  5757 net.cpp:338] pool1 -> pool1
I1111 20:33:25.314805  5757 net.cpp:113] Setting up pool1
I1111 20:33:25.314973  5757 net.cpp:120] Top shape: 64 20 12 12 (184320)
I1111 20:33:25.314983  5757 layer_factory.hpp:74] Creating layer conv2
I1111 20:33:25.314998  5757 net.cpp:84] Creating Layer conv2
I1111 20:33:25.315004  5757 net.cpp:380] conv2 <- pool1
I1111 20:33:25.315011  5757 net.cpp:338] conv2 -> conv2
I1111 20:33:25.315022  5757 net.cpp:113] Setting up conv2
I1111 20:33:25.315804  5757 net.cpp:120] Top shape: 64 50 8 8 (204800)
I1111 20:33:25.315821  5757 layer_factory.hpp:74] Creating layer slice
I1111 20:33:25.315832  5757 net.cpp:84] Creating Layer slice
I1111 20:33:25.315836  5757 net.cpp:380] slice <- conv2
I1111 20:33:25.315843  5757 net.cpp:338] slice -> conv2_1
I1111 20:33:25.315855  5757 net.cpp:338] slice -> conv2_2
I1111 20:33:25.315862  5757 net.cpp:113] Setting up slice
I1111 20:33:25.315882  5757 net.cpp:120] Top shape: 64 25 8 8 (102400)
I1111 20:33:25.315891  5757 net.cpp:120] Top shape: 64 25 8 8 (102400)
I1111 20:33:25.315896  5757 layer_factory.hpp:74] Creating layer bilinear
I1111 20:33:25.315903  5757 net.cpp:84] Creating Layer bilinear
I1111 20:33:25.315909  5757 net.cpp:380] bilinear <- conv2_1
I1111 20:33:25.315914  5757 net.cpp:380] bilinear <- conv2_2
I1111 20:33:25.315920  5757 net.cpp:338] bilinear -> bilinear1
I1111 20:33:25.315927  5757 net.cpp:113] Setting up bilinear
I1111 20:33:25.316109  5757 net.cpp:120] Top shape: 64 625 2 2 (160000)
I1111 20:33:25.316117  5757 layer_factory.hpp:74] Creating layer conv3
I1111 20:33:25.316125  5757 net.cpp:84] Creating Layer conv3
I1111 20:33:25.316131  5757 net.cpp:380] conv3 <- bilinear1
I1111 20:33:25.316139  5757 net.cpp:338] conv3 -> conv3
I1111 20:33:25.316149  5757 net.cpp:113] Setting up conv3
I1111 20:33:25.316975  5757 net.cpp:120] Top shape: 64 50 2 2 (12800)
I1111 20:33:25.316989  5757 layer_factory.hpp:74] Creating layer ip1
I1111 20:33:25.317008  5757 net.cpp:84] Creating Layer ip1
I1111 20:33:25.317013  5757 net.cpp:380] ip1 <- conv3
I1111 20:33:25.317020  5757 net.cpp:338] ip1 -> ip1
I1111 20:33:25.317031  5757 net.cpp:113] Setting up ip1
I1111 20:33:25.317679  5757 net.cpp:120] Top shape: 64 500 (32000)
I1111 20:33:25.317692  5757 layer_factory.hpp:74] Creating layer relu1
I1111 20:33:25.317699  5757 net.cpp:84] Creating Layer relu1
I1111 20:33:25.317704  5757 net.cpp:380] relu1 <- ip1
I1111 20:33:25.317713  5757 net.cpp:327] relu1 -> ip1 (in-place)
I1111 20:33:25.317719  5757 net.cpp:113] Setting up relu1
I1111 20:33:25.317965  5757 net.cpp:120] Top shape: 64 500 (32000)
I1111 20:33:25.317975  5757 layer_factory.hpp:74] Creating layer ip2
I1111 20:33:25.317986  5757 net.cpp:84] Creating Layer ip2
I1111 20:33:25.317991  5757 net.cpp:380] ip2 <- ip1
I1111 20:33:25.317998  5757 net.cpp:338] ip2 -> ip2
I1111 20:33:25.318007  5757 net.cpp:113] Setting up ip2
I1111 20:33:25.318054  5757 net.cpp:120] Top shape: 64 10 (640)
I1111 20:33:25.318064  5757 layer_factory.hpp:74] Creating layer loss
I1111 20:33:25.318073  5757 net.cpp:84] Creating Layer loss
I1111 20:33:25.318078  5757 net.cpp:380] loss <- ip2
I1111 20:33:25.318083  5757 net.cpp:380] loss <- label
I1111 20:33:25.318089  5757 net.cpp:338] loss -> loss
I1111 20:33:25.318095  5757 net.cpp:113] Setting up loss
I1111 20:33:25.318104  5757 layer_factory.hpp:74] Creating layer loss
…
I1111 20:33:25.318842  5757 solver.cpp:156] Creating test net (#0) specified by net file: examples/mnist_bil/lenet_train_test.prototxt
I1111 20:33:25.318876  5757 net.cpp:257] The NetState phase (1) differed from the phase (0) specified by a rule in layer mnist
I1111 20:33:25.319016  5757 net.cpp:42] Initializing net from parameters: 
name: "LeNet"
state {
  phase: TEST
}
layer {
  name: "mnist"
  type: "Data"
  top: "data"
  top: "label"
  include {
    phase: TEST
  }
  transform_param {
    scale: 0.00390625
  }
  data_param {
    source: "examples/mnist/mnist_test_lmdb"
    batch_size: 100
    backend: LMDB
  }
}
layer {
  name: "conv1"
  type: "Convolution"
  bottom: "data"
  top: "conv1"
  param {
    lr_mult: 1
  }
  param {
    lr_mult: 2
  }
  convolution_param {
    num_output: 20
    kernel_size: 5
    stride: 1
    weight_filler {
      type: "xavier"
    }
    bias_filler {
      type: "constant"
    }
  }
}
layer {
  name: "pool1"
  type: "Pooling"
  bottom: "conv1"
  top: "pool1"
  pooling_param {
    pool: MAX
    kernel_size: 2
    stride: 2
  }
}
layer {
  name: "conv2"
  type: "Convolution"
  bottom: "pool1"
  top: "conv2"
  param {
    lr_mult: 1
  }
  param {
    lr_mult: 2
  }
  convolution_param {
    num_output: 50
    kernel_size: 5
    stride: 1
    weight_filler {
      type: "xavier"
    }
    bias_filler {
      type: "constant"
    }
  }
}
layer {
  name: "slice"
  type: "Slice"
  bottom: "conv2"
  top: "conv2_1"
  top: "conv2_2"
  slice_param {
    axis: 1
  }
}
layer {
  name: "bilinear"
  type: "BilinearPatch"
  bottom: "conv2_1"
  bottom: "conv2_2"
  top: "bilinear1"
  bilinear_patch_param {
    patch_h: 4
    patch_w: 4
  }
}
layer {
  name: "conv3"
  type: "Convolution"
  bottom: "bilinear1"
  top: "conv3"
  param {
    name: "conv3_w"
    lr_mult: 1
  }
  param {
    name: "conv3_b"
    lr_mult: 2
  }
  convolution_param {
    num_output: 50
    kernel_size: 1
    stride: 1
    weight_filler {
      type: "xavier"
    }
    bias_filler {
      type: "constant"
    }
  }
}
layer {
  name: "ip1"
  type: "InnerProduct"
  bottom: "conv3"
  top: "ip1"
  param {
    lr_mult: 1
  }
  param {
    lr_mult: 2
  }
  inner_product_param {
    num_output: 500
    weight_filler {
      type: "xavier"
    }
    bias_filler {
      type: "constant"
    }
  }
}
layer {
  name: "relu1"
  type: "ReLU"
  bottom: "ip1"
  top: "ip1"
}
layer {
  name: "ip2"
  type: "InnerProduct"
  bottom: "ip1"
  top: "ip2"
  param {
    lr_mult: 1
  }
  param {
    lr_mult: 2
  }
  inner_product_param {
    num_output: 10
    weight_filler {
      type: "xavier"
    }
    bias_filler {
      type: "constant"
    }
  }
}
layer {
  name: "accuracy"
  type: "Accuracy"
  bottom: "ip2"
  bottom: "label"
  top: "accuracy"
  include {
    phase: TEST
  }
}
layer {
  name: "loss"
  type: "SoftmaxWithLoss"
  bottom: "ip2"
  bottom: "label"
  top: "loss"
}
I1111 20:33:25.319095  5757 layer_factory.hpp:74] Creating layer mnist
I1111 20:33:25.319108  5757 net.cpp:84] Creating Layer mnist
I1111 20:33:25.319116  5757 net.cpp:338] mnist -> data
I1111 20:33:25.319139  5757 net.cpp:338] mnist -> label
I1111 20:33:25.319149  5757 net.cpp:113] Setting up mnist
I1111 20:33:25.321569  5757 db.cpp:34] Opened lmdb examples/mnist/mnist_test_lmdb
I1111 20:33:25.321754  5757 data_layer.cpp:69] output data size: 100,1,28,28
I1111 20:33:25.321899  5757 net.cpp:120] Top shape: 100 1 28 28 (78400)
I1111 20:33:25.321910  5757 net.cpp:120] Top shape: 100 (100)
I1111 20:33:25.321915  5757 layer_factory.hpp:74] Creating layer label_mnist_1_split
I1111 20:33:25.321925  5757 net.cpp:84] Creating Layer label_mnist_1_split
I1111 20:33:25.321933  5757 net.cpp:380] label_mnist_1_split <- label
I1111 20:33:25.321945  5757 net.cpp:338] label_mnist_1_split -> label_mnist_1_split_0
I1111 20:33:25.321959  5757 net.cpp:338] label_mnist_1_split -> label_mnist_1_split_1
I1111 20:33:25.321970  5757 net.cpp:113] Setting up label_mnist_1_split
I1111 20:33:25.321981  5757 net.cpp:120] Top shape: 100 (100)
I1111 20:33:25.321990  5757 net.cpp:120] Top shape: 100 (100)
I1111 20:33:25.321995  5757 layer_factory.hpp:74] Creating layer conv1
I1111 20:33:25.322005  5757 net.cpp:84] Creating Layer conv1
I1111 20:33:25.322012  5757 net.cpp:380] conv1 <- data
I1111 20:33:25.322036  5757 net.cpp:338] conv1 -> conv1
I1111 20:33:25.322046  5757 net.cpp:113] Setting up conv1
I1111 20:33:25.322751  5757 net.cpp:120] Top shape: 100 20 24 24 (1152000)
I1111 20:33:25.322768  5757 layer_factory.hpp:74] Creating layer pool1
I1111 20:33:25.322778  5757 net.cpp:84] Creating Layer pool1
I1111 20:33:25.322784  5757 net.cpp:380] pool1 <- conv1
I1111 20:33:25.322793  5757 net.cpp:338] pool1 -> pool1
I1111 20:33:25.322801  5757 net.cpp:113] Setting up pool1
I1111 20:33:25.322937  5757 net.cpp:120] Top shape: 100 20 12 12 (288000)
I1111 20:33:25.322945  5757 layer_factory.hpp:74] Creating layer conv2
I1111 20:33:25.322957  5757 net.cpp:84] Creating Layer conv2
I1111 20:33:25.322962  5757 net.cpp:380] conv2 <- pool1
I1111 20:33:25.322971  5757 net.cpp:338] conv2 -> conv2
I1111 20:33:25.322980  5757 net.cpp:113] Setting up conv2
I1111 20:33:25.323791  5757 net.cpp:120] Top shape: 100 50 8 8 (320000)
I1111 20:33:25.323807  5757 layer_factory.hpp:74] Creating layer slice
I1111 20:33:25.323815  5757 net.cpp:84] Creating Layer slice
I1111 20:33:25.323819  5757 net.cpp:380] slice <- conv2
I1111 20:33:25.323827  5757 net.cpp:338] slice -> conv2_1
I1111 20:33:25.323837  5757 net.cpp:338] slice -> conv2_2
I1111 20:33:25.323845  5757 net.cpp:113] Setting up slice
I1111 20:33:25.323854  5757 net.cpp:120] Top shape: 100 25 8 8 (160000)
I1111 20:33:25.323861  5757 net.cpp:120] Top shape: 100 25 8 8 (160000)
I1111 20:33:25.323866  5757 layer_factory.hpp:74] Creating layer bilinear
I1111 20:33:25.323873  5757 net.cpp:84] Creating Layer bilinear
I1111 20:33:25.323876  5757 net.cpp:380] bilinear <- conv2_1
I1111 20:33:25.323881  5757 net.cpp:380] bilinear <- conv2_2
I1111 20:33:25.323889  5757 net.cpp:338] bilinear -> bilinear1
I1111 20:33:25.323897  5757 net.cpp:113] Setting up bilinear
I1111 20:33:25.324059  5757 net.cpp:120] Top shape: 100 625 2 2 (250000)
I1111 20:33:25.324066  5757 layer_factory.hpp:74] Creating layer conv3
I1111 20:33:25.324076  5757 net.cpp:84] Creating Layer conv3
I1111 20:33:25.324082  5757 net.cpp:380] conv3 <- bilinear1
I1111 20:33:25.324090  5757 net.cpp:338] conv3 -> conv3
I1111 20:33:25.324098  5757 net.cpp:113] Setting up conv3
I1111 20:33:25.324962  5757 net.cpp:120] Top shape: 100 50 2 2 (20000)
I1111 20:33:25.324977  5757 layer_factory.hpp:74] Creating layer ip1
I1111 20:33:25.324988  5757 net.cpp:84] Creating Layer ip1
I1111 20:33:25.324995  5757 net.cpp:380] ip1 <- conv3
I1111 20:33:25.325003  5757 net.cpp:338] ip1 -> ip1
I1111 20:33:25.325012  5757 net.cpp:113] Setting up ip1
I1111 20:33:25.325724  5757 net.cpp:120] Top shape: 100 500 (50000)
I1111 20:33:25.325736  5757 layer_factory.hpp:74] Creating layer relu1
I1111 20:33:25.325744  5757 net.cpp:84] Creating Layer relu1
I1111 20:33:25.325750  5757 net.cpp:380] relu1 <- ip1
I1111 20:33:25.325757  5757 net.cpp:327] relu1 -> ip1 (in-place)
I1111 20:33:25.325763  5757 net.cpp:113] Setting up relu1
I1111 20:33:25.326010  5757 net.cpp:120] Top shape: 100 500 (50000)
I1111 20:33:25.326032  5757 layer_factory.hpp:74] Creating layer ip2
I1111 20:33:25.326043  5757 net.cpp:84] Creating Layer ip2
I1111 20:33:25.326050  5757 net.cpp:380] ip2 <- ip1
I1111 20:33:25.326061  5757 net.cpp:338] ip2 -> ip2
I1111 20:33:25.326071  5757 net.cpp:113] Setting up ip2
I1111 20:33:25.326122  5757 net.cpp:120] Top shape: 100 10 (1000)
I1111 20:33:25.326133  5757 layer_factory.hpp:74] Creating layer ip2_ip2_0_split
I1111 20:33:25.326141  5757 net.cpp:84] Creating Layer ip2_ip2_0_split
I1111 20:33:25.326145  5757 net.cpp:380] ip2_ip2_0_split <- ip2
I1111 20:33:25.326153  5757 net.cpp:338] ip2_ip2_0_split -> ip2_ip2_0_split_0
I1111 20:33:25.326163  5757 net.cpp:338] ip2_ip2_0_split -> ip2_ip2_0_split_1
I1111 20:33:25.326171  5757 net.cpp:113] Setting up ip2_ip2_0_split
I1111 20:33:25.326179  5757 net.cpp:120] Top shape: 100 10 (1000)
I1111 20:33:25.326184  5757 net.cpp:120] Top shape: 100 10 (1000)
I1111 20:33:25.326189  5757 layer_factory.hpp:74] Creating layer accuracy
I1111 20:33:25.326200  5757 net.cpp:84] Creating Layer accuracy
I1111 20:33:25.326206  5757 net.cpp:380] accuracy <- ip2_ip2_0_split_0
I1111 20:33:25.326211  5757 net.cpp:380] accuracy <- label_mnist_1_split_0
I1111 20:33:25.326218  5757 net.cpp:338] accuracy -> accuracy
I1111 20:33:25.326225  5757 net.cpp:113] Setting up accuracy
…
