…
I1111 18:19:00.006291 11107 net.cpp:257] The NetState phase (0) differed from the phase (1) specified by a rule in layer mnist
I1111 18:19:00.006314 11107 net.cpp:257] The NetState phase (0) differed from the phase (1) specified by a rule in layer accuracy
I1111 18:19:00.006429 11107 net.cpp:42] Initializing net from parameters: 
name: "LeNet"
state {
  phase: TRAIN
}
layer {
  name: "mnist"
  type: "Data"
  top: "data"
  top: "label"
  include {
    phase: TRAIN
  }
  transform_param {
    scale: 0.00390625
  }
  data_param {
    source: "examples/mnist/mnist_train_lmdb"
    batch_size: 64
    backend: LMDB
  }
}
layer {
  name: "conv1"
  type: "Convolution"
  bottom: "data"
  top: "conv1"
  param {
    lr_mult: 1
  }
  param {
    lr_mult: 2
  }
  convolution_param {
    num_output: 20
    kernel_size: 5
    stride: 1
    weight_filler {
      type: "xavier"
    }
    bias_filler {
      type: "constant"
    }
  }
}
layer {
  name: "pool1"
  type: "Pooling"
  bottom: "conv1"
  top: "pool1"
  pooling_param {
    pool: MAX
    kernel_size: 2
    stride: 2
  }
}
layer {
  name: "conv2"
  type: "Convolution"
  bottom: "pool1"
  top: "conv2"
  param {
    lr_mult: 1
  }
  param {
    lr_mult: 2
  }
  convolution_param {
    num_output: 50
    kernel_size: 5
    stride: 1
    weight_filler {
      type: "xavier"
    }
    bias_filler {
      type: "constant"
    }
  }
}
layer {
  name: "slice"
  type: "Slice"
  bottom: "conv2"
  top: "conv2_1"
  top: "conv2_2"
  slice_param {
    axis: 1
  }
}
layer {
  name: "bilinear"
  type: "BilinearPatch"
  bottom: "conv2_1"
  bottom: "conv2_2"
  top: "bilinear1"
  bilinear_patch_param {
    patch_h: 2
    patch_w: 2
  }
}
layer {
  name: "conv3"
  type: "Convolution"
  bottom: "bilinear1"
  top: "conv3"
  param {
    name: "conv3_w"
    lr_mult: 1
  }
  param {
    name: "conv3_b"
    lr_mult: 2
  }
  convolution_param {
    num_output: 50
    kernel_size: 1
    stride: 1
    weight_filler {
      type: "xavier"
    }
    bias_filler {
      type: "constant"
    }
  }
}
layer {
  name: "ip1"
  type: "InnerProduct"
  bottom: "conv3"
  top: "ip1"
  param {
    lr_mult: 1
  }
  param {
    lr_mult: 2
  }
  inner_product_param {
    num_output: 500
    weight_filler {
      type: "xavier"
    }
    bias_filler {
      type: "constant"
    }
  }
}
layer {
  name: "relu1"
  type: "ReLU"
  bottom: "ip1"
  top: "ip1"
}
layer {
  name: "ip2"
  type: "InnerProduct"
  bottom: "ip1"
  top: "ip2"
  param {
    lr_mult: 1
  }
  param {
    lr_mult: 2
  }
  inner_product_param {
    num_output: 10
    weight_filler {
      type: "xavier"
    }
    bias_filler {
      type: "constant"
    }
  }
}
layer {
  name: "loss"
  type: "SoftmaxWithLoss"
  bottom: "ip2"
  bottom: "label"
  top: "loss"
}
I1111 18:19:00.006508 11107 layer_factory.hpp:74] Creating layer mnist
I1111 18:19:00.006551 11107 net.cpp:84] Creating Layer mnist
I1111 18:19:00.006566 11107 net.cpp:338] mnist -> data
I1111 18:19:00.006597 11107 net.cpp:338] mnist -> label
I1111 18:19:00.006616 11107 net.cpp:113] Setting up mnist
I1111 18:19:00.008307 11107 db.cpp:34] Opened lmdb examples/mnist/mnist_train_lmdb
I1111 18:19:00.008515 11107 data_layer.cpp:69] output data size: 64,1,28,28
I1111 18:19:00.008642 11107 net.cpp:120] Top shape: 64 1 28 28 (50176)
I1111 18:19:00.008653 11107 net.cpp:120] Top shape: 64 (64)
I1111 18:19:00.008661 11107 layer_factory.hpp:74] Creating layer conv1
I1111 18:19:00.008671 11107 net.cpp:84] Creating Layer conv1
I1111 18:19:00.008679 11107 net.cpp:380] conv1 <- data
I1111 18:19:00.008715 11107 net.cpp:338] conv1 -> conv1
I1111 18:19:00.008756 11107 net.cpp:113] Setting up conv1
I1111 18:19:00.099973 11107 net.cpp:120] Top shape: 64 20 24 24 (737280)
I1111 18:19:00.100080 11107 layer_factory.hpp:74] Creating layer pool1
I1111 18:19:00.100105 11107 net.cpp:84] Creating Layer pool1
I1111 18:19:00.100111 11107 net.cpp:380] pool1 <- conv1
I1111 18:19:00.100121 11107 net.cpp:338] pool1 -> pool1
I1111 18:19:00.100129 11107 net.cpp:113] Setting up pool1
I1111 18:19:00.100301 11107 net.cpp:120] Top shape: 64 20 12 12 (184320)
I1111 18:19:00.100313 11107 layer_factory.hpp:74] Creating layer conv2
I1111 18:19:00.100339 11107 net.cpp:84] Creating Layer conv2
I1111 18:19:00.100345 11107 net.cpp:380] conv2 <- pool1
I1111 18:19:00.100353 11107 net.cpp:338] conv2 -> conv2
I1111 18:19:00.100364 11107 net.cpp:113] Setting up conv2
I1111 18:19:00.101184 11107 net.cpp:120] Top shape: 64 50 8 8 (204800)
I1111 18:19:00.101212 11107 layer_factory.hpp:74] Creating layer slice
I1111 18:19:00.101229 11107 net.cpp:84] Creating Layer slice
I1111 18:19:00.101234 11107 net.cpp:380] slice <- conv2
I1111 18:19:00.101241 11107 net.cpp:338] slice -> conv2_1
I1111 18:19:00.101255 11107 net.cpp:338] slice -> conv2_2
I1111 18:19:00.101264 11107 net.cpp:113] Setting up slice
I1111 18:19:00.101279 11107 net.cpp:120] Top shape: 64 25 8 8 (102400)
I1111 18:19:00.101285 11107 net.cpp:120] Top shape: 64 25 8 8 (102400)
I1111 18:19:00.101290 11107 layer_factory.hpp:74] Creating layer bilinear
I1111 18:19:00.101300 11107 net.cpp:84] Creating Layer bilinear
I1111 18:19:00.101305 11107 net.cpp:380] bilinear <- conv2_1
I1111 18:19:00.101310 11107 net.cpp:380] bilinear <- conv2_2
I1111 18:19:00.101315 11107 net.cpp:338] bilinear -> bilinear1
I1111 18:19:00.101323 11107 net.cpp:113] Setting up bilinear
I1111 18:19:00.101902 11107 net.cpp:120] Top shape: 64 625 4 4 (640000)
I1111 18:19:00.101912 11107 layer_factory.hpp:74] Creating layer conv3
I1111 18:19:00.101922 11107 net.cpp:84] Creating Layer conv3
I1111 18:19:00.101928 11107 net.cpp:380] conv3 <- bilinear1
I1111 18:19:00.101935 11107 net.cpp:338] conv3 -> conv3
I1111 18:19:00.101943 11107 net.cpp:113] Setting up conv3
I1111 18:19:00.102807 11107 net.cpp:120] Top shape: 64 50 4 4 (51200)
I1111 18:19:00.102821 11107 layer_factory.hpp:74] Creating layer ip1
I1111 18:19:00.102854 11107 net.cpp:84] Creating Layer ip1
I1111 18:19:00.102860 11107 net.cpp:380] ip1 <- conv3
I1111 18:19:00.102867 11107 net.cpp:338] ip1 -> ip1
I1111 18:19:00.102880 11107 net.cpp:113] Setting up ip1
I1111 18:19:00.105613 11107 net.cpp:120] Top shape: 64 500 (32000)
I1111 18:19:00.105646 11107 layer_factory.hpp:74] Creating layer relu1
I1111 18:19:00.105661 11107 net.cpp:84] Creating Layer relu1
I1111 18:19:00.105666 11107 net.cpp:380] relu1 <- ip1
I1111 18:19:00.105674 11107 net.cpp:327] relu1 -> ip1 (in-place)
I1111 18:19:00.105679 11107 net.cpp:113] Setting up relu1
I1111 18:19:00.106132 11107 net.cpp:120] Top shape: 64 500 (32000)
I1111 18:19:00.106143 11107 layer_factory.hpp:74] Creating layer ip2
I1111 18:19:00.106173 11107 net.cpp:84] Creating Layer ip2
I1111 18:19:00.106178 11107 net.cpp:380] ip2 <- ip1
I1111 18:19:00.106185 11107 net.cpp:338] ip2 -> ip2
I1111 18:19:00.106195 11107 net.cpp:113] Setting up ip2
I1111 18:19:00.106258 11107 net.cpp:120] Top shape: 64 10 (640)
I1111 18:19:00.106282 11107 layer_factory.hpp:74] Creating layer loss
I1111 18:19:00.106292 11107 net.cpp:84] Creating Layer loss
I1111 18:19:00.106297 11107 net.cpp:380] loss <- ip2
I1111 18:19:00.106302 11107 net.cpp:380] loss <- label
I1111 18:19:00.106312 11107 net.cpp:338] loss -> loss
I1111 18:19:00.106320 11107 net.cpp:113] Setting up loss
I1111 18:19:00.106329 11107 layer_factory.hpp:74] Creating layer loss
…
I1111 18:19:00.107273 11107 solver.cpp:156] Creating test net (#0) specified by net file: examples/mnist_bil/lenet_train_test.prototxt
I1111 18:19:00.107321 11107 net.cpp:257] The NetState phase (1) differed from the phase (0) specified by a rule in layer mnist
I1111 18:19:00.107475 11107 net.cpp:42] Initializing net from parameters: 
name: "LeNet"
state {
  phase: TEST
}
layer {
  name: "mnist"
  type: "Data"
  top: "data"
  top: "label"
  include {
    phase: TEST
  }
  transform_param {
    scale: 0.00390625
  }
  data_param {
    source: "examples/mnist/mnist_test_lmdb"
    batch_size: 100
    backend: LMDB
  }
}
layer {
  name: "conv1"
  type: "Convolution"
  bottom: "data"
  top: "conv1"
  param {
    lr_mult: 1
  }
  param {
    lr_mult: 2
  }
  convolution_param {
    num_output: 20
    kernel_size: 5
    stride: 1
    weight_filler {
      type: "xavier"
    }
    bias_filler {
      type: "constant"
    }
  }
}
layer {
  name: "pool1"
  type: "Pooling"
  bottom: "conv1"
  top: "pool1"
  pooling_param {
    pool: MAX
    kernel_size: 2
    stride: 2
  }
}
layer {
  name: "conv2"
  type: "Convolution"
  bottom: "pool1"
  top: "conv2"
  param {
    lr_mult: 1
  }
  param {
    lr_mult: 2
  }
  convolution_param {
    num_output: 50
    kernel_size: 5
    stride: 1
    weight_filler {
      type: "xavier"
    }
    bias_filler {
      type: "constant"
    }
  }
}
layer {
  name: "slice"
  type: "Slice"
  bottom: "conv2"
  top: "conv2_1"
  top: "conv2_2"
  slice_param {
    axis: 1
  }
}
layer {
  name: "bilinear"
  type: "BilinearPatch"
  bottom: "conv2_1"
  bottom: "conv2_2"
  top: "bilinear1"
  bilinear_patch_param {
    patch_h: 2
    patch_w: 2
  }
}
layer {
  name: "conv3"
  type: "Convolution"
  bottom: "bilinear1"
  top: "conv3"
  param {
    name: "conv3_w"
    lr_mult: 1
  }
  param {
    name: "conv3_b"
    lr_mult: 2
  }
  convolution_param {
    num_output: 50
    kernel_size: 1
    stride: 1
    weight_filler {
      type: "xavier"
    }
    bias_filler {
      type: "constant"
    }
  }
}
layer {
  name: "ip1"
  type: "InnerProduct"
  bottom: "conv3"
  top: "ip1"
  param {
    lr_mult: 1
  }
  param {
    lr_mult: 2
  }
  inner_product_param {
    num_output: 500
    weight_filler {
      type: "xavier"
    }
    bias_filler {
      type: "constant"
    }
  }
}
layer {
  name: "relu1"
  type: "ReLU"
  bottom: "ip1"
  top: "ip1"
}
layer {
  name: "ip2"
  type: "InnerProduct"
  bottom: "ip1"
  top: "ip2"
  param {
    lr_mult: 1
  }
  param {
    lr_mult: 2
  }
  inner_product_param {
    num_output: 10
    weight_filler {
      type: "xavier"
    }
    bias_filler {
      type: "constant"
    }
  }
}
layer {
  name: "accuracy"
  type: "Accuracy"
  bottom: "ip2"
  bottom: "label"
  top: "accuracy"
  include {
    phase: TEST
  }
}
layer {
  name: "loss"
  type: "SoftmaxWithLoss"
  bottom: "ip2"
  bottom: "label"
  top: "loss"
}
I1111 18:19:00.107568 11107 layer_factory.hpp:74] Creating layer mnist
I1111 18:19:00.107580 11107 net.cpp:84] Creating Layer mnist
I1111 18:19:00.107586 11107 net.cpp:338] mnist -> data
I1111 18:19:00.107596 11107 net.cpp:338] mnist -> label
I1111 18:19:00.107604 11107 net.cpp:113] Setting up mnist
I1111 18:19:00.109653 11107 db.cpp:34] Opened lmdb examples/mnist/mnist_test_lmdb
I1111 18:19:00.109856 11107 data_layer.cpp:69] output data size: 100,1,28,28
I1111 18:19:00.110060 11107 net.cpp:120] Top shape: 100 1 28 28 (78400)
I1111 18:19:00.110070 11107 net.cpp:120] Top shape: 100 (100)
I1111 18:19:00.110077 11107 layer_factory.hpp:74] Creating layer label_mnist_1_split
I1111 18:19:00.110090 11107 net.cpp:84] Creating Layer label_mnist_1_split
I1111 18:19:00.110096 11107 net.cpp:380] label_mnist_1_split <- label
I1111 18:19:00.110103 11107 net.cpp:338] label_mnist_1_split -> label_mnist_1_split_0
I1111 18:19:00.110116 11107 net.cpp:338] label_mnist_1_split -> label_mnist_1_split_1
I1111 18:19:00.110124 11107 net.cpp:113] Setting up label_mnist_1_split
I1111 18:19:00.110132 11107 net.cpp:120] Top shape: 100 (100)
I1111 18:19:00.110139 11107 net.cpp:120] Top shape: 100 (100)
I1111 18:19:00.110152 11107 layer_factory.hpp:74] Creating layer conv1
I1111 18:19:00.110170 11107 net.cpp:84] Creating Layer conv1
I1111 18:19:00.110177 11107 net.cpp:380] conv1 <- data
I1111 18:19:00.110183 11107 net.cpp:338] conv1 -> conv1
I1111 18:19:00.110196 11107 net.cpp:113] Setting up conv1
I1111 18:19:00.111171 11107 net.cpp:120] Top shape: 100 20 24 24 (1152000)
I1111 18:19:00.111187 11107 layer_factory.hpp:74] Creating layer pool1
I1111 18:19:00.111196 11107 net.cpp:84] Creating Layer pool1
I1111 18:19:00.111214 11107 net.cpp:380] pool1 <- conv1
I1111 18:19:00.111222 11107 net.cpp:338] pool1 -> pool1
I1111 18:19:00.111232 11107 net.cpp:113] Setting up pool1
I1111 18:19:00.111369 11107 net.cpp:120] Top shape: 100 20 12 12 (288000)
I1111 18:19:00.111379 11107 layer_factory.hpp:74] Creating layer conv2
I1111 18:19:00.111388 11107 net.cpp:84] Creating Layer conv2
I1111 18:19:00.111394 11107 net.cpp:380] conv2 <- pool1
I1111 18:19:00.111403 11107 net.cpp:338] conv2 -> conv2
I1111 18:19:00.111413 11107 net.cpp:113] Setting up conv2
I1111 18:19:00.112262 11107 net.cpp:120] Top shape: 100 50 8 8 (320000)
I1111 18:19:00.112277 11107 layer_factory.hpp:74] Creating layer slice
I1111 18:19:00.112287 11107 net.cpp:84] Creating Layer slice
I1111 18:19:00.112292 11107 net.cpp:380] slice <- conv2
I1111 18:19:00.112300 11107 net.cpp:338] slice -> conv2_1
I1111 18:19:00.112310 11107 net.cpp:338] slice -> conv2_2
I1111 18:19:00.112318 11107 net.cpp:113] Setting up slice
I1111 18:19:00.112329 11107 net.cpp:120] Top shape: 100 25 8 8 (160000)
I1111 18:19:00.112336 11107 net.cpp:120] Top shape: 100 25 8 8 (160000)
I1111 18:19:00.112341 11107 layer_factory.hpp:74] Creating layer bilinear
I1111 18:19:00.112349 11107 net.cpp:84] Creating Layer bilinear
I1111 18:19:00.112354 11107 net.cpp:380] bilinear <- conv2_1
I1111 18:19:00.112359 11107 net.cpp:380] bilinear <- conv2_2
I1111 18:19:00.112365 11107 net.cpp:338] bilinear -> bilinear1
I1111 18:19:00.112370 11107 net.cpp:113] Setting up bilinear
I1111 18:19:00.112921 11107 net.cpp:120] Top shape: 100 625 4 4 (1000000)
I1111 18:19:00.112927 11107 layer_factory.hpp:74] Creating layer conv3
I1111 18:19:00.112938 11107 net.cpp:84] Creating Layer conv3
I1111 18:19:00.112943 11107 net.cpp:380] conv3 <- bilinear1
I1111 18:19:00.112951 11107 net.cpp:338] conv3 -> conv3
I1111 18:19:00.112960 11107 net.cpp:113] Setting up conv3
I1111 18:19:00.113836 11107 net.cpp:120] Top shape: 100 50 4 4 (80000)
I1111 18:19:00.113849 11107 layer_factory.hpp:74] Creating layer ip1
I1111 18:19:00.113860 11107 net.cpp:84] Creating Layer ip1
I1111 18:19:00.113879 11107 net.cpp:380] ip1 <- conv3
I1111 18:19:00.113886 11107 net.cpp:338] ip1 -> ip1
I1111 18:19:00.113895 11107 net.cpp:113] Setting up ip1
I1111 18:19:00.116672 11107 net.cpp:120] Top shape: 100 500 (50000)
I1111 18:19:00.116684 11107 layer_factory.hpp:74] Creating layer relu1
I1111 18:19:00.116694 11107 net.cpp:84] Creating Layer relu1
I1111 18:19:00.116699 11107 net.cpp:380] relu1 <- ip1
I1111 18:19:00.116704 11107 net.cpp:327] relu1 -> ip1 (in-place)
I1111 18:19:00.116724 11107 net.cpp:113] Setting up relu1
I1111 18:19:00.116976 11107 net.cpp:120] Top shape: 100 500 (50000)
I1111 18:19:00.117007 11107 layer_factory.hpp:74] Creating layer ip2
I1111 18:19:00.117017 11107 net.cpp:84] Creating Layer ip2
I1111 18:19:00.117036 11107 net.cpp:380] ip2 <- ip1
I1111 18:19:00.117043 11107 net.cpp:338] ip2 -> ip2
I1111 18:19:00.117051 11107 net.cpp:113] Setting up ip2
I1111 18:19:00.117100 11107 net.cpp:120] Top shape: 100 10 (1000)
I1111 18:19:00.117112 11107 layer_factory.hpp:74] Creating layer ip2_ip2_0_split
I1111 18:19:00.117120 11107 net.cpp:84] Creating Layer ip2_ip2_0_split
I1111 18:19:00.117125 11107 net.cpp:380] ip2_ip2_0_split <- ip2
I1111 18:19:00.117132 11107 net.cpp:338] ip2_ip2_0_split -> ip2_ip2_0_split_0
I1111 18:19:00.117141 11107 net.cpp:338] ip2_ip2_0_split -> ip2_ip2_0_split_1
I1111 18:19:00.117147 11107 net.cpp:113] Setting up ip2_ip2_0_split
I1111 18:19:00.117154 11107 net.cpp:120] Top shape: 100 10 (1000)
I1111 18:19:00.117161 11107 net.cpp:120] Top shape: 100 10 (1000)
I1111 18:19:00.117164 11107 layer_factory.hpp:74] Creating layer accuracy
I1111 18:19:00.117172 11107 net.cpp:84] Creating Layer accuracy
I1111 18:19:00.117177 11107 net.cpp:380] accuracy <- ip2_ip2_0_split_0
I1111 18:19:00.117182 11107 net.cpp:380] accuracy <- label_mnist_1_split_0
I1111 18:19:00.117188 11107 net.cpp:338] accuracy -> accuracy
I1111 18:19:00.117195 11107 net.cpp:113] Setting up accuracy
…
