…
I1109 16:09:59.356413  7587 solver.cpp:72] Creating training net from net file: //home/eustinova/skaffe-private/examples/siamese_bs/mnist_siamese_train_test.prototxt
I1109 16:09:59.358642  7587 net.cpp:257] The NetState phase (0) differed from the phase (1) specified by a rule in layer pair_data
I1109 16:09:59.358862  7587 net.cpp:42] Initializing net from parameters: 
name: "mnist_siamese_train_test"
state {
  phase: TRAIN
}
layer {
  name: "pair_data"
  type: "Data"
  top: "pair_data"
  top: "sim"
  include {
    phase: TRAIN
  }
  transform_param {
    scale: 0.00390625
  }
  data_param {
    source: "/home/eustinova/skaffe-private/examples/siamese_bs/mnist_siamese_train_leveldb"
    batch_size: 64
  }
}
layer {
  name: "slice_pair"
  type: "Slice"
  bottom: "pair_data"
  top: "data"
  top: "data_p"
  slice_param {
    slice_dim: 1
    slice_point: 1
  }
}
layer {
  name: "conv1"
  type: "Convolution"
  bottom: "data"
  top: "conv1"
  param {
    name: "conv1_w"
    lr_mult: 1
  }
  param {
    name: "conv1_b"
    lr_mult: 2
  }
  convolution_param {
    num_output: 20
    kernel_size: 5
    stride: 1
    weight_filler {
      type: "xavier"
    }
    bias_filler {
      type: "constant"
    }
  }
}
layer {
  name: "pool1"
  type: "Pooling"
  bottom: "conv1"
  top: "pool1"
  pooling_param {
    pool: MAX
    kernel_size: 2
    stride: 2
  }
}
layer {
  name: "conv2"
  type: "Convolution"
  bottom: "pool1"
  top: "conv2"
  param {
    name: "conv2_w"
    lr_mult: 1
  }
  param {
    name: "conv2_b"
    lr_mult: 2
  }
  convolution_param {
    num_output: 100
    kernel_size: 5
    stride: 1
    weight_filler {
      type: "xavier"
    }
    bias_filler {
      type: "constant"
    }
  }
}
layer {
  name: "pool2"
  type: "Pooling"
  bottom: "conv2"
  top: "pool2"
  pooling_param {
    pool: MAX
    kernel_size: 2
    stride: 2
  }
}
layer {
  name: "ip1"
  type: "InnerProduct"
  bottom: "pool2"
  top: "ip1"
  param {
    name: "ip1_w"
    lr_mult: 1
  }
  param {
    name: "ip1_b"
    lr_mult: 2
  }
  inner_product_param {
    num_output: 500
    weight_filler {
      type: "xavier"
    }
    bias_filler {
      type: "constant"
    }
  }
}
layer {
  name: "relu1"
  type: "ReLU"
  bottom: "ip1"
  top: "ip1"
}
layer {
  name: "ip2"
  type: "InnerProduct"
  bottom: "ip1"
  top: "ip2"
  param {
    name: "ip2_w"
    lr_mult: 1
  }
  param {
    name: "ip2_b"
    lr_mult: 2
  }
  inner_product_param {
    num_output: 10
    weight_filler {
      type: "xavier"
    }
    bias_filler {
      type: "constant"
    }
  }
}
layer {
  name: "feat"
  type: "InnerProduct"
  bottom: "ip2"
  top: "feat"
  param {
    name: "feat_w"
    lr_mult: 1
  }
  param {
    name: "feat_b"
    lr_mult: 2
  }
  inner_product_param {
    num_output: 2
    weight_filler {
      type: "xavier"
    }
    bias_filler {
      type: "constant"
    }
  }
}
layer {
  name: "conv1_p"
  type: "Convolution"
  bottom: "data_p"
  top: "conv1_p"
  param {
    name: "conv1_w"
    lr_mult: 1
  }
  param {
    name: "conv1_b"
    lr_mult: 2
  }
  convolution_param {
    num_output: 20
    kernel_size: 5
    stride: 1
    weight_filler {
      type: "xavier"
    }
    bias_filler {
      type: "constant"
    }
  }
}
layer {
  name: "pool1_p"
  type: "Pooling"
  bottom: "conv1_p"
  top: "pool1_p"
  pooling_param {
    pool: MAX
    kernel_size: 2
    stride: 2
  }
}
layer {
  name: "conv2_p"
  type: "Convolution"
  bottom: "pool1_p"
  top: "conv2_p"
  param {
    name: "conv2_w"
    lr_mult: 1
  }
  param {
    name: "conv2_b"
    lr_mult: 2
  }
  convolution_param {
    num_output: 100
    kernel_size: 5
    stride: 1
    weight_filler {
      type: "xavier"
    }
    bias_filler {
      type: "constant"
    }
  }
}
layer {
  name: "pool2_p"
  type: "Pooling"
  bottom: "conv2_p"
  top: "pool2_p"
  pooling_param {
    pool: MAX
    kernel_size: 2
    stride: 2
  }
}
layer {
  name: "ip1_p"
  type: "InnerProduct"
  bottom: "pool2_p"
  top: "ip1_p"
  param {
    name: "ip1_w"
    lr_mult: 1
  }
  param {
    name: "ip1_b"
    lr_mult: 2
  }
  inner_product_param {
    num_output: 500
    weight_filler {
      type: "xavier"
    }
    bias_filler {
      type: "constant"
    }
  }
}
layer {
  name: "relu1_p"
  type: "ReLU"
  bottom: "ip1_p"
  top: "ip1_p"
}
layer {
  name: "ip2_p"
  type: "InnerProduct"
  bottom: "ip1_p"
  top: "ip2_p"
  param {
    name: "ip2_w"
    lr_mult: 1
  }
  param {
    name: "ip2_b"
    lr_mult: 2
  }
  inner_product_param {
    num_output: 10
    weight_filler {
      type: "xavier"
    }
    bias_filler {
      type: "constant"
    }
  }
}
layer {
  name: "feat_p"
  type: "InnerProduct"
  bottom: "ip2_p"
  top: "feat_p"
  param {
    name: "feat_w"
    lr_mult: 1
  }
  param {
    name: "feat_b"
    lr_mult: 2
  }
  inner_product_param {
    num_output: 2
    weight_filler {
      type: "xavier"
    }
    bias_filler {
      type: "constant"
    }
  }
}
layer {
  name: "loss"
  type: "ContrastiveLoss"
  bottom: "feat"
  bottom: "feat_p"
  bottom: "sim"
  top: "loss"
  contrastive_loss_param {
    margin: 1
  }
}
I1109 16:09:59.358971  7587 layer_factory.hpp:74] Creating layer pair_data
I1109 16:09:59.358994  7587 net.cpp:84] Creating Layer pair_data
I1109 16:09:59.359004  7587 net.cpp:338] pair_data -> pair_data
I1109 16:09:59.359030  7587 net.cpp:338] pair_data -> sim
I1109 16:09:59.359042  7587 net.cpp:113] Setting up pair_data
I1109 16:09:59.366791  7587 db.cpp:20] Opened leveldb /home/eustinova/skaffe-private/examples/siamese_bs/mnist_siamese_train_leveldb
I1109 16:09:59.368093  7587 data_layer.cpp:69] output data size: 64,2,28,28
I1109 16:09:59.368268  7587 net.cpp:120] Top shape: 64 2 28 28 (100352)
I1109 16:09:59.368279  7587 net.cpp:120] Top shape: 64 (64)
I1109 16:09:59.368286  7587 layer_factory.hpp:74] Creating layer slice_pair
I1109 16:09:59.368299  7587 net.cpp:84] Creating Layer slice_pair
I1109 16:09:59.368305  7587 net.cpp:380] slice_pair <- pair_data
I1109 16:09:59.368314  7587 net.cpp:338] slice_pair -> data
I1109 16:09:59.368330  7587 net.cpp:338] slice_pair -> data_p
I1109 16:09:59.368337  7587 net.cpp:113] Setting up slice_pair
I1109 16:09:59.368346  7587 net.cpp:120] Top shape: 64 1 28 28 (50176)
I1109 16:09:59.368356  7587 net.cpp:120] Top shape: 64 1 28 28 (50176)
I1109 16:09:59.368360  7587 layer_factory.hpp:74] Creating layer conv1
I1109 16:09:59.368372  7587 net.cpp:84] Creating Layer conv1
I1109 16:09:59.368377  7587 net.cpp:380] conv1 <- data
I1109 16:09:59.368384  7587 net.cpp:338] conv1 -> conv1
I1109 16:09:59.368394  7587 net.cpp:113] Setting up conv1
I1109 16:09:59.454933  7587 net.cpp:120] Top shape: 64 20 24 24 (737280)
I1109 16:09:59.454977  7587 layer_factory.hpp:74] Creating layer pool1
I1109 16:09:59.454993  7587 net.cpp:84] Creating Layer pool1
I1109 16:09:59.455000  7587 net.cpp:380] pool1 <- conv1
I1109 16:09:59.455008  7587 net.cpp:338] pool1 -> pool1
I1109 16:09:59.455018  7587 net.cpp:113] Setting up pool1
I1109 16:09:59.455164  7587 net.cpp:120] Top shape: 64 20 12 12 (184320)
I1109 16:09:59.455175  7587 layer_factory.hpp:74] Creating layer conv2
I1109 16:09:59.455188  7587 net.cpp:84] Creating Layer conv2
I1109 16:09:59.455194  7587 net.cpp:380] conv2 <- pool1
I1109 16:09:59.455201  7587 net.cpp:338] conv2 -> conv2
I1109 16:09:59.455212  7587 net.cpp:113] Setting up conv2
I1109 16:09:59.456069  7587 net.cpp:120] Top shape: 64 100 8 8 (409600)
I1109 16:09:59.456084  7587 layer_factory.hpp:74] Creating layer pool2
I1109 16:09:59.456091  7587 net.cpp:84] Creating Layer pool2
I1109 16:09:59.456110  7587 net.cpp:380] pool2 <- conv2
I1109 16:09:59.456117  7587 net.cpp:338] pool2 -> pool2
I1109 16:09:59.456126  7587 net.cpp:113] Setting up pool2
I1109 16:09:59.456384  7587 net.cpp:120] Top shape: 64 100 4 4 (102400)
I1109 16:09:59.456408  7587 layer_factory.hpp:74] Creating layer ip1
I1109 16:09:59.456423  7587 net.cpp:84] Creating Layer ip1
I1109 16:09:59.456429  7587 net.cpp:380] ip1 <- pool2
I1109 16:09:59.456435  7587 net.cpp:338] ip1 -> ip1
I1109 16:09:59.456447  7587 net.cpp:113] Setting up ip1
I1109 16:09:59.461009  7587 net.cpp:120] Top shape: 64 500 (32000)
I1109 16:09:59.461024  7587 layer_factory.hpp:74] Creating layer relu1
I1109 16:09:59.461031  7587 net.cpp:84] Creating Layer relu1
I1109 16:09:59.461035  7587 net.cpp:380] relu1 <- ip1
I1109 16:09:59.461041  7587 net.cpp:327] relu1 -> ip1 (in-place)
I1109 16:09:59.461061  7587 net.cpp:113] Setting up relu1
I1109 16:09:59.461189  7587 net.cpp:120] Top shape: 64 500 (32000)
I1109 16:09:59.461199  7587 layer_factory.hpp:74] Creating layer ip2
I1109 16:09:59.461208  7587 net.cpp:84] Creating Layer ip2
I1109 16:09:59.461215  7587 net.cpp:380] ip2 <- ip1
I1109 16:09:59.461221  7587 net.cpp:338] ip2 -> ip2
I1109 16:09:59.461230  7587 net.cpp:113] Setting up ip2
I1109 16:09:59.461269  7587 net.cpp:120] Top shape: 64 10 (640)
I1109 16:09:59.461277  7587 layer_factory.hpp:74] Creating layer feat
I1109 16:09:59.461285  7587 net.cpp:84] Creating Layer feat
I1109 16:09:59.461290  7587 net.cpp:380] feat <- ip2
I1109 16:09:59.461297  7587 net.cpp:338] feat -> feat
I1109 16:09:59.461305  7587 net.cpp:113] Setting up feat
I1109 16:09:59.461318  7587 net.cpp:120] Top shape: 64 2 (128)
I1109 16:09:59.461325  7587 layer_factory.hpp:74] Creating layer conv1_p
I1109 16:09:59.461334  7587 net.cpp:84] Creating Layer conv1_p
I1109 16:09:59.461340  7587 net.cpp:380] conv1_p <- data_p
I1109 16:09:59.461346  7587 net.cpp:338] conv1_p -> conv1_p
I1109 16:09:59.461354  7587 net.cpp:113] Setting up conv1_p
I1109 16:09:59.461936  7587 net.cpp:120] Top shape: 64 20 24 24 (737280)
I1109 16:09:59.461947  7587 net.cpp:424] Sharing parameters 'conv1_w' owned by layer 'conv1', param index 0
I1109 16:09:59.461956  7587 net.cpp:424] Sharing parameters 'conv1_b' owned by layer 'conv1', param index 1
I1109 16:09:59.461961  7587 layer_factory.hpp:74] Creating layer pool1_p
I1109 16:09:59.461980  7587 net.cpp:84] Creating Layer pool1_p
I1109 16:09:59.461987  7587 net.cpp:380] pool1_p <- conv1_p
I1109 16:09:59.461992  7587 net.cpp:338] pool1_p -> pool1_p
I1109 16:09:59.461999  7587 net.cpp:113] Setting up pool1_p
I1109 16:09:59.462236  7587 net.cpp:120] Top shape: 64 20 12 12 (184320)
I1109 16:09:59.462246  7587 layer_factory.hpp:74] Creating layer conv2_p
I1109 16:09:59.462255  7587 net.cpp:84] Creating Layer conv2_p
I1109 16:09:59.462261  7587 net.cpp:380] conv2_p <- pool1_p
I1109 16:09:59.462267  7587 net.cpp:338] conv2_p -> conv2_p
I1109 16:09:59.462276  7587 net.cpp:113] Setting up conv2_p
I1109 16:09:59.463115  7587 net.cpp:120] Top shape: 64 100 8 8 (409600)
I1109 16:09:59.463126  7587 net.cpp:424] Sharing parameters 'conv2_w' owned by layer 'conv2', param index 0
I1109 16:09:59.463132  7587 net.cpp:424] Sharing parameters 'conv2_b' owned by layer 'conv2', param index 1
I1109 16:09:59.463138  7587 layer_factory.hpp:74] Creating layer pool2_p
I1109 16:09:59.463156  7587 net.cpp:84] Creating Layer pool2_p
I1109 16:09:59.463162  7587 net.cpp:380] pool2_p <- conv2_p
I1109 16:09:59.463170  7587 net.cpp:338] pool2_p -> pool2_p
I1109 16:09:59.463176  7587 net.cpp:113] Setting up pool2_p
I1109 16:09:59.463404  7587 net.cpp:120] Top shape: 64 100 4 4 (102400)
I1109 16:09:59.463414  7587 layer_factory.hpp:74] Creating layer ip1_p
I1109 16:09:59.463423  7587 net.cpp:84] Creating Layer ip1_p
I1109 16:09:59.463428  7587 net.cpp:380] ip1_p <- pool2_p
I1109 16:09:59.463434  7587 net.cpp:338] ip1_p -> ip1_p
I1109 16:09:59.463443  7587 net.cpp:113] Setting up ip1_p
I1109 16:09:59.468168  7587 net.cpp:120] Top shape: 64 500 (32000)
I1109 16:09:59.468181  7587 net.cpp:424] Sharing parameters 'ip1_w' owned by layer 'ip1', param index 0
I1109 16:09:59.468317  7587 net.cpp:424] Sharing parameters 'ip1_b' owned by layer 'ip1', param index 1
I1109 16:09:59.468350  7587 layer_factory.hpp:74] Creating layer relu1_p
I1109 16:09:59.468358  7587 net.cpp:84] Creating Layer relu1_p
I1109 16:09:59.468364  7587 net.cpp:380] relu1_p <- ip1_p
I1109 16:09:59.468369  7587 net.cpp:327] relu1_p -> ip1_p (in-place)
I1109 16:09:59.468375  7587 net.cpp:113] Setting up relu1_p
I1109 16:09:59.468499  7587 net.cpp:120] Top shape: 64 500 (32000)
I1109 16:09:59.468508  7587 layer_factory.hpp:74] Creating layer ip2_p
I1109 16:09:59.468518  7587 net.cpp:84] Creating Layer ip2_p
I1109 16:09:59.468524  7587 net.cpp:380] ip2_p <- ip1_p
I1109 16:09:59.468531  7587 net.cpp:338] ip2_p -> ip2_p
I1109 16:09:59.468541  7587 net.cpp:113] Setting up ip2_p
I1109 16:09:59.468581  7587 net.cpp:120] Top shape: 64 10 (640)
I1109 16:09:59.468590  7587 net.cpp:424] Sharing parameters 'ip2_w' owned by layer 'ip2', param index 0
I1109 16:09:59.468595  7587 net.cpp:424] Sharing parameters 'ip2_b' owned by layer 'ip2', param index 1
I1109 16:09:59.468600  7587 layer_factory.hpp:74] Creating layer feat_p
I1109 16:09:59.468607  7587 net.cpp:84] Creating Layer feat_p
I1109 16:09:59.468612  7587 net.cpp:380] feat_p <- ip2_p
I1109 16:09:59.468619  7587 net.cpp:338] feat_p -> feat_p
I1109 16:09:59.468627  7587 net.cpp:113] Setting up feat_p
I1109 16:09:59.468637  7587 net.cpp:120] Top shape: 64 2 (128)
I1109 16:09:59.468644  7587 net.cpp:424] Sharing parameters 'feat_w' owned by layer 'feat', param index 0
I1109 16:09:59.468649  7587 net.cpp:424] Sharing parameters 'feat_b' owned by layer 'feat', param index 1
I1109 16:09:59.468654  7587 layer_factory.hpp:74] Creating layer loss
I1109 16:09:59.468662  7587 net.cpp:84] Creating Layer loss
I1109 16:09:59.468667  7587 net.cpp:380] loss <- feat
…
I1109 16:09:59.469547  7587 solver.cpp:156] Creating test net (#0) specified by net file: //home/eustinova/skaffe-private/examples/siamese_bs/mnist_siamese_train_test.prototxt
I1109 16:09:59.469604  7587 net.cpp:257] The NetState phase (1) differed from the phase (0) specified by a rule in layer pair_data
I1109 16:09:59.469802  7587 net.cpp:42] Initializing net from parameters: 
name: "mnist_siamese_train_test"
state {
  phase: TEST
}
layer {
  name: "pair_data"
  type: "Data"
  top: "pair_data"
  top: "sim"
  include {
    phase: TEST
  }
  transform_param {
    scale: 0.00390625
  }
  data_param {
    source: "/home/eustinova/skaffe-private/examples/siamese_bs/mnist_siamese_test_leveldb"
    batch_size: 100
  }
}
layer {
  name: "slice_pair"
  type: "Slice"
  bottom: "pair_data"
  top: "data"
  top: "data_p"
  slice_param {
    slice_dim: 1
    slice_point: 1
  }
}
layer {
  name: "conv1"
  type: "Convolution"
  bottom: "data"
  top: "conv1"
  param {
    name: "conv1_w"
    lr_mult: 1
  }
  param {
    name: "conv1_b"
    lr_mult: 2
  }
  convolution_param {
    num_output: 20
    kernel_size: 5
    stride: 1
    weight_filler {
      type: "xavier"
    }
    bias_filler {
      type: "constant"
    }
  }
}
layer {
  name: "pool1"
  type: "Pooling"
  bottom: "conv1"
  top: "pool1"
  pooling_param {
    pool: MAX
    kernel_size: 2
    stride: 2
  }
}
layer {
  name: "conv2"
  type: "Convolution"
  bottom: "pool1"
  top: "conv2"
  param {
    name: "conv2_w"
    lr_mult: 1
  }
  param {
    name: "conv2_b"
    lr_mult: 2
  }
  convolution_param {
    num_output: 100
    kernel_size: 5
    stride: 1
    weight_filler {
      type: "xavier"
    }
    bias_filler {
      type: "constant"
    }
  }
}
layer {
  name: "pool2"
  type: "Pooling"
  bottom: "conv2"
  top: "pool2"
  pooling_param {
    pool: MAX
    kernel_size: 2
    stride: 2
  }
}
layer {
  name: "ip1"
  type: "InnerProduct"
  bottom: "pool2"
  top: "ip1"
  param {
    name: "ip1_w"
    lr_mult: 1
  }
  param {
    name: "ip1_b"
    lr_mult: 2
  }
  inner_product_param {
    num_output: 500
    weight_filler {
      type: "xavier"
    }
    bias_filler {
      type: "constant"
    }
  }
}
layer {
  name: "relu1"
  type: "ReLU"
  bottom: "ip1"
  top: "ip1"
}
layer {
  name: "ip2"
  type: "InnerProduct"
  bottom: "ip1"
  top: "ip2"
  param {
    name: "ip2_w"
    lr_mult: 1
  }
  param {
    name: "ip2_b"
    lr_mult: 2
  }
  inner_product_param {
    num_output: 10
    weight_filler {
      type: "xavier"
    }
    bias_filler {
      type: "constant"
    }
  }
}
layer {
  name: "feat"
  type: "InnerProduct"
  bottom: "ip2"
  top: "feat"
  param {
    name: "feat_w"
    lr_mult: 1
  }
  param {
    name: "feat_b"
    lr_mult: 2
  }
  inner_product_param {
    num_output: 2
    weight_filler {
      type: "xavier"
    }
    bias_filler {
      type: "constant"
    }
  }
}
layer {
  name: "conv1_p"
  type: "Convolution"
  bottom: "data_p"
  top: "conv1_p"
  param {
    name: "conv1_w"
    lr_mult: 1
  }
  param {
    name: "conv1_b"
    lr_mult: 2
  }
  convolution_param {
    num_output: 20
    kernel_size: 5
    stride: 1
    weight_filler {
      type: "xavier"
    }
    bias_filler {
      type: "constant"
    }
  }
}
layer {
  name: "pool1_p"
  type: "Pooling"
  bottom: "conv1_p"
  top: "pool1_p"
  pooling_param {
    pool: MAX
    kernel_size: 2
    stride: 2
  }
}
layer {
  name: "conv2_p"
  type: "Convolution"
  bottom: "pool1_p"
  top: "conv2_p"
  param {
    name: "conv2_w"
    lr_mult: 1
  }
  param {
    name: "conv2_b"
    lr_mult: 2
  }
  convolution_param {
    num_output: 100
    kernel_size: 5
    stride: 1
    weight_filler {
      type: "xavier"
    }
    bias_filler {
      type: "constant"
    }
  }
}
layer {
  name: "pool2_p"
  type: "Pooling"
  bottom: "conv2_p"
  top: "pool2_p"
  pooling_param {
    pool: MAX
    kernel_size: 2
    stride: 2
  }
}
layer {
  name: "ip1_p"
  type: "InnerProduct"
  bottom: "pool2_p"
  top: "ip1_p"
  param {
    name: "ip1_w"
    lr_mult: 1
  }
  param {
    name: "ip1_b"
    lr_mult: 2
  }
  inner_product_param {
    num_output: 500
    weight_filler {
      type: "xavier"
    }
    bias_filler {
      type: "constant"
    }
  }
}
layer {
  name: "relu1_p"
  type: "ReLU"
  bottom: "ip1_p"
  top: "ip1_p"
}
layer {
  name: "ip2_p"
  type: "InnerProduct"
  bottom: "ip1_p"
  top: "ip2_p"
  param {
    name: "ip2_w"
    lr_mult: 1
  }
  param {
    name: "ip2_b"
    lr_mult: 2
  }
  inner_product_param {
    num_output: 10
    weight_filler {
      type: "xavier"
    }
    bias_filler {
      type: "constant"
    }
  }
}
layer {
  name: "feat_p"
  type: "InnerProduct"
  bottom: "ip2_p"
  top: "feat_p"
  param {
    name: "feat_w"
    lr_mult: 1
  }
  param {
    name: "feat_b"
    lr_mult: 2
  }
  inner_product_param {
    num_output: 2
    weight_filler {
      type: "xavier"
    }
    bias_filler {
      type: "constant"
    }
  }
}
layer {
  name: "loss"
  type: "ContrastiveLoss"
  bottom: "feat"
  bottom: "feat_p"
  bottom: "sim"
  top: "loss"
  contrastive_loss_param {
    margin: 1
  }
}
I1109 16:09:59.469880  7587 layer_factory.hpp:74] Creating layer pair_data
I1109 16:09:59.469894  7587 net.cpp:84] Creating Layer pair_data
I1109 16:09:59.469902  7587 net.cpp:338] pair_data -> pair_data
I1109 16:09:59.469912  7587 net.cpp:338] pair_data -> sim
I1109 16:09:59.469921  7587 net.cpp:113] Setting up pair_data
I1109 16:09:59.478446  7587 db.cpp:20] Opened leveldb /home/eustinova/skaffe-private/examples/siamese_bs/mnist_siamese_test_leveldb
I1109 16:09:59.479243  7587 data_layer.cpp:69] output data size: 100,2,28,28
I1109 16:09:59.479594  7587 net.cpp:120] Top shape: 100 2 28 28 (156800)
I1109 16:09:59.479605  7587 net.cpp:120] Top shape: 100 (100)
I1109 16:09:59.479612  7587 layer_factory.hpp:74] Creating layer slice_pair
I1109 16:09:59.479624  7587 net.cpp:84] Creating Layer slice_pair
I1109 16:09:59.479629  7587 net.cpp:380] slice_pair <- pair_data
I1109 16:09:59.479636  7587 net.cpp:338] slice_pair -> data
I1109 16:09:59.479663  7587 net.cpp:338] slice_pair -> data_p
I1109 16:09:59.479679  7587 net.cpp:113] Setting up slice_pair
I1109 16:09:59.479691  7587 net.cpp:120] Top shape: 100 1 28 28 (78400)
I1109 16:09:59.479701  7587 net.cpp:120] Top shape: 100 1 28 28 (78400)
I1109 16:09:59.479706  7587 layer_factory.hpp:74] Creating layer conv1
I1109 16:09:59.479714  7587 net.cpp:84] Creating Layer conv1
I1109 16:09:59.479720  7587 net.cpp:380] conv1 <- data
I1109 16:09:59.479727  7587 net.cpp:338] conv1 -> conv1
I1109 16:09:59.479735  7587 net.cpp:113] Setting up conv1
I1109 16:09:59.480481  7587 net.cpp:120] Top shape: 100 20 24 24 (1152000)
I1109 16:09:59.480509  7587 layer_factory.hpp:74] Creating layer pool1
I1109 16:09:59.480520  7587 net.cpp:84] Creating Layer pool1
I1109 16:09:59.480528  7587 net.cpp:380] pool1 <- conv1
I1109 16:09:59.480541  7587 net.cpp:338] pool1 -> pool1
I1109 16:09:59.480551  7587 net.cpp:113] Setting up pool1
I1109 16:09:59.480922  7587 net.cpp:120] Top shape: 100 20 12 12 (288000)
I1109 16:09:59.480932  7587 layer_factory.hpp:74] Creating layer conv2
I1109 16:09:59.480955  7587 net.cpp:84] Creating Layer conv2
I1109 16:09:59.480962  7587 net.cpp:380] conv2 <- pool1
I1109 16:09:59.480969  7587 net.cpp:338] conv2 -> conv2
I1109 16:09:59.480978  7587 net.cpp:113] Setting up conv2
I1109 16:09:59.481919  7587 net.cpp:120] Top shape: 100 100 8 8 (640000)
I1109 16:09:59.481931  7587 layer_factory.hpp:74] Creating layer pool2
I1109 16:09:59.481953  7587 net.cpp:84] Creating Layer pool2
I1109 16:09:59.481958  7587 net.cpp:380] pool2 <- conv2
I1109 16:09:59.481964  7587 net.cpp:338] pool2 -> pool2
I1109 16:09:59.481971  7587 net.cpp:113] Setting up pool2
I1109 16:09:59.482116  7587 net.cpp:120] Top shape: 100 100 4 4 (160000)
I1109 16:09:59.482125  7587 layer_factory.hpp:74] Creating layer ip1
I1109 16:09:59.482136  7587 net.cpp:84] Creating Layer ip1
I1109 16:09:59.482141  7587 net.cpp:380] ip1 <- pool2
I1109 16:09:59.482149  7587 net.cpp:338] ip1 -> ip1
I1109 16:09:59.482159  7587 net.cpp:113] Setting up ip1
I1109 16:09:59.486930  7587 net.cpp:120] Top shape: 100 500 (50000)
I1109 16:09:59.486943  7587 layer_factory.hpp:74] Creating layer relu1
I1109 16:09:59.486949  7587 net.cpp:84] Creating Layer relu1
I1109 16:09:59.486953  7587 net.cpp:380] relu1 <- ip1
I1109 16:09:59.486958  7587 net.cpp:327] relu1 -> ip1 (in-place)
I1109 16:09:59.486964  7587 net.cpp:113] Setting up relu1
I1109 16:09:59.487246  7587 net.cpp:120] Top shape: 100 500 (50000)
I1109 16:09:59.487256  7587 layer_factory.hpp:74] Creating layer ip2
I1109 16:09:59.487265  7587 net.cpp:84] Creating Layer ip2
I1109 16:09:59.487269  7587 net.cpp:380] ip2 <- ip1
I1109 16:09:59.487277  7587 net.cpp:338] ip2 -> ip2
I1109 16:09:59.487287  7587 net.cpp:113] Setting up ip2
I1109 16:09:59.487334  7587 net.cpp:120] Top shape: 100 10 (1000)
I1109 16:09:59.487344  7587 layer_factory.hpp:74] Creating layer feat
I1109 16:09:59.487350  7587 net.cpp:84] Creating Layer feat
I1109 16:09:59.487356  7587 net.cpp:380] feat <- ip2
I1109 16:09:59.487362  7587 net.cpp:338] feat -> feat
I1109 16:09:59.487370  7587 net.cpp:113] Setting up feat
I1109 16:09:59.487381  7587 net.cpp:120] Top shape: 100 2 (200)
I1109 16:09:59.487390  7587 layer_factory.hpp:74] Creating layer conv1_p
I1109 16:09:59.487397  7587 net.cpp:84] Creating Layer conv1_p
I1109 16:09:59.487403  7587 net.cpp:380] conv1_p <- data_p
I1109 16:09:59.487411  7587 net.cpp:338] conv1_p -> conv1_p
I1109 16:09:59.487419  7587 net.cpp:113] Setting up conv1_p
I1109 16:09:59.487951  7587 net.cpp:120] Top shape: 100 20 24 24 (1152000)
I1109 16:09:59.487962  7587 net.cpp:424] Sharing parameters 'conv1_w' owned by layer 'conv1', param index 0
I1109 16:09:59.487967  7587 net.cpp:424] Sharing parameters 'conv1_b' owned by layer 'conv1', param index 1
I1109 16:09:59.487972  7587 layer_factory.hpp:74] Creating layer pool1_p
I1109 16:09:59.487979  7587 net.cpp:84] Creating Layer pool1_p
I1109 16:09:59.487984  7587 net.cpp:380] pool1_p <- conv1_p
I1109 16:09:59.487990  7587 net.cpp:338] pool1_p -> pool1_p
I1109 16:09:59.487998  7587 net.cpp:113] Setting up pool1_p
I1109 16:09:59.488251  7587 net.cpp:120] Top shape: 100 20 12 12 (288000)
I1109 16:09:59.488262  7587 layer_factory.hpp:74] Creating layer conv2_p
I1109 16:09:59.488273  7587 net.cpp:84] Creating Layer conv2_p
I1109 16:09:59.488279  7587 net.cpp:380] conv2_p <- pool1_p
I1109 16:09:59.488287  7587 net.cpp:338] conv2_p -> conv2_p
I1109 16:09:59.488296  7587 net.cpp:113] Setting up conv2_p
I1109 16:09:59.489339  7587 net.cpp:120] Top shape: 100 100 8 8 (640000)
I1109 16:09:59.489349  7587 net.cpp:424] Sharing parameters 'conv2_w' owned by layer 'conv2', param index 0
I1109 16:09:59.489356  7587 net.cpp:424] Sharing parameters 'conv2_b' owned by layer 'conv2', param index 1
I1109 16:09:59.489362  7587 layer_factory.hpp:74] Creating layer pool2_p
I1109 16:09:59.489368  7587 net.cpp:84] Creating Layer pool2_p
I1109 16:09:59.489372  7587 net.cpp:380] pool2_p <- conv2_p
I1109 16:09:59.489378  7587 net.cpp:338] pool2_p -> pool2_p
I1109 16:09:59.489385  7587 net.cpp:113] Setting up pool2_p
I1109 16:09:59.489516  7587 net.cpp:120] Top shape: 100 100 4 4 (160000)
I1109 16:09:59.489526  7587 layer_factory.hpp:74] Creating layer ip1_p
I1109 16:09:59.489533  7587 net.cpp:84] Creating Layer ip1_p
I1109 16:09:59.489539  7587 net.cpp:380] ip1_p <- pool2_p
I1109 16:09:59.489547  7587 net.cpp:338] ip1_p -> ip1_p
I1109 16:09:59.489554  7587 net.cpp:113] Setting up ip1_p
I1109 16:09:59.494089  7587 net.cpp:120] Top shape: 100 500 (50000)
I1109 16:09:59.494099  7587 net.cpp:424] Sharing parameters 'ip1_w' owned by layer 'ip1', param index 0
I1109 16:09:59.494120  7587 net.cpp:424] Sharing parameters 'ip1_b' owned by layer 'ip1', param index 1
I1109 16:09:59.494127  7587 layer_factory.hpp:74] Creating layer relu1_p
I1109 16:09:59.494132  7587 net.cpp:84] Creating Layer relu1_p
I1109 16:09:59.494137  7587 net.cpp:380] relu1_p <- ip1_p
I1109 16:09:59.494143  7587 net.cpp:327] relu1_p -> ip1_p (in-place)
I1109 16:09:59.494148  7587 net.cpp:113] Setting up relu1_p
I1109 16:09:59.494381  7587 net.cpp:120] Top shape: 100 500 (50000)
I1109 16:09:59.494392  7587 layer_factory.hpp:74] Creating layer ip2_p
I1109 16:09:59.494402  7587 net.cpp:84] Creating Layer ip2_p
I1109 16:09:59.494410  7587 net.cpp:380] ip2_p <- ip1_p
I1109 16:09:59.494416  7587 net.cpp:338] ip2_p -> ip2_p
I1109 16:09:59.494426  7587 net.cpp:113] Setting up ip2_p
I1109 16:09:59.494465  7587 net.cpp:120] Top shape: 100 10 (1000)
I1109 16:09:59.494484  7587 net.cpp:424] Sharing parameters 'ip2_w' owned by layer 'ip2', param index 0
I1109 16:09:59.494493  7587 net.cpp:424] Sharing parameters 'ip2_b' owned by layer 'ip2', param index 1
I1109 16:09:59.494498  7587 layer_factory.hpp:74] Creating layer feat_p
I1109 16:09:59.494505  7587 net.cpp:84] Creating Layer feat_p
I1109 16:09:59.494509  7587 net.cpp:380] feat_p <- ip2_p
I1109 16:09:59.494516  7587 net.cpp:338] feat_p -> feat_p
I1109 16:09:59.494524  7587 net.cpp:113] Setting up feat_p
I1109 16:09:59.494535  7587 net.cpp:120] Top shape: 100 2 (200)
I1109 16:09:59.494541  7587 net.cpp:424] Sharing parameters 'feat_w' owned by layer 'feat', param index 0
I1109 16:09:59.494546  7587 net.cpp:424] Sharing parameters 'feat_b' owned by layer 'feat', param index 1
I1109 16:09:59.494551  7587 layer_factory.hpp:74] Creating layer loss
I1109 16:09:59.494560  7587 net.cpp:84] Creating Layer loss
I1109 16:09:59.494565  7587 net.cpp:380] loss <- feat
…
