…
I1109 19:14:55.806407 27605 solver.cpp:72] Creating training net from net file: ../../examples/siamese/mnist_siamese_train_test.prototxt
I1109 19:14:55.807217 27605 net.cpp:257] The NetState phase (0) differed from the phase (1) specified by a rule in layer pair_data
I1109 19:14:55.807442 27605 net.cpp:42] Initializing net from parameters: 
name: "mnist_siamese_train_test"
state {
  phase: TRAIN
}
layer {
  name: "pair_data"
  type: "Data"
  top: "pair_data"
  top: "sim"
  include {
    phase: TRAIN
  }
  transform_param {
    scale: 0.00390625
  }
  data_param {
    source: "../../examples/siamese/mnist_siamese_train_leveldb"
    batch_size: 64
  }
}
layer {
  name: "slice_pair"
  type: "Slice"
  bottom: "pair_data"
  top: "data"
  top: "data_p"
  slice_param {
    slice_dim: 1
    slice_point: 1
  }
}
layer {
  name: "conv1"
  type: "Convolution"
  bottom: "data"
  top: "conv1"
  param {
    name: "conv1_w"
    lr_mult: 1
  }
  param {
    name: "conv1_b"
    lr_mult: 2
  }
  convolution_param {
    num_output: 20
    kernel_size: 5
    stride: 1
    weight_filler {
      type: "xavier"
    }
    bias_filler {
      type: "constant"
    }
  }
}
layer {
  name: "pool1"
  type: "Pooling"
  bottom: "conv1"
  top: "pool1"
  pooling_param {
    pool: MAX
    kernel_size: 2
    stride: 2
  }
}
layer {
  name: "conv2"
  type: "Convolution"
  bottom: "pool1"
  top: "conv2"
  param {
    name: "conv2_w"
    lr_mult: 1
  }
  param {
    name: "conv2_b"
    lr_mult: 2
  }
  convolution_param {
    num_output: 100
    kernel_size: 5
    stride: 1
    weight_filler {
      type: "xavier"
    }
    bias_filler {
      type: "constant"
    }
  }
}
layer {
  name: "pool2"
  type: "Pooling"
  bottom: "conv2"
  top: "pool2"
  pooling_param {
    pool: MAX
    kernel_size: 2
    stride: 2
  }
}
layer {
  name: "ip1"
  type: "InnerProduct"
  bottom: "pool2"
  top: "ip1"
  param {
    name: "ip1_w"
    lr_mult: 1
  }
  param {
    name: "ip1_b"
    lr_mult: 2
  }
  inner_product_param {
    num_output: 500
    weight_filler {
      type: "xavier"
    }
    bias_filler {
      type: "constant"
    }
  }
}
layer {
  name: "relu1"
  type: "ReLU"
  bottom: "ip1"
  top: "ip1"
}
layer {
  name: "ip2"
  type: "InnerProduct"
  bottom: "ip1"
  top: "ip2"
  param {
    name: "ip2_w"
    lr_mult: 1
  }
  param {
    name: "ip2_b"
    lr_mult: 2
  }
  inner_product_param {
    num_output: 10
    weight_filler {
      type: "xavier"
    }
    bias_filler {
      type: "constant"
    }
  }
}
layer {
  name: "feat"
  type: "InnerProduct"
  bottom: "ip2"
  top: "feat"
  param {
    name: "feat_w"
    lr_mult: 1
  }
  param {
    name: "feat_b"
    lr_mult: 2
  }
  inner_product_param {
    num_output: 2
    weight_filler {
      type: "xavier"
    }
    bias_filler {
      type: "constant"
    }
  }
}
layer {
  name: "conv1_p"
  type: "Convolution"
  bottom: "data_p"
  top: "conv1_p"
  param {
    name: "conv1_w"
    lr_mult: 1
  }
  param {
    name: "conv1_b"
    lr_mult: 2
  }
  convolution_param {
    num_output: 20
    kernel_size: 5
    stride: 1
    weight_filler {
      type: "xavier"
    }
    bias_filler {
      type: "constant"
    }
  }
}
layer {
  name: "pool1_p"
  type: "Pooling"
  bottom: "conv1_p"
  top: "pool1_p"
  pooling_param {
    pool: MAX
    kernel_size: 2
    stride: 2
  }
}
layer {
  name: "conv2_p"
  type: "Convolution"
  bottom: "pool1_p"
  top: "conv2_p"
  param {
    name: "conv2_w"
    lr_mult: 1
  }
  param {
    name: "conv2_b"
    lr_mult: 2
  }
  convolution_param {
    num_output: 100
    kernel_size: 5
    stride: 1
    weight_filler {
      type: "xavier"
    }
    bias_filler {
      type: "constant"
    }
  }
}
layer {
  name: "pool2_p"
  type: "Pooling"
  bottom: "conv2_p"
  top: "pool2_p"
  pooling_param {
    pool: MAX
    kernel_size: 2
    stride: 2
  }
}
layer {
  name: "ip1_p"
  type: "InnerProduct"
  bottom: "pool2_p"
  top: "ip1_p"
  param {
    name: "ip1_w"
    lr_mult: 1
  }
  param {
    name: "ip1_b"
    lr_mult: 2
  }
  inner_product_param {
    num_output: 500
    weight_filler {
      type: "xavier"
    }
    bias_filler {
      type: "constant"
    }
  }
}
layer {
  name: "relu1_p"
  type: "ReLU"
  bottom: "ip1_p"
  top: "ip1_p"
}
layer {
  name: "ip2_p"
  type: "InnerProduct"
  bottom: "ip1_p"
  top: "ip2_p"
  param {
    name: "ip2_w"
    lr_mult: 1
  }
  param {
    name: "ip2_b"
    lr_mult: 2
  }
  inner_product_param {
    num_output: 10
    weight_filler {
      type: "xavier"
    }
    bias_filler {
      type: "constant"
    }
  }
}
layer {
  name: "feat_p"
  type: "InnerProduct"
  bottom: "ip2_p"
  top: "feat_p"
  param {
    name: "feat_w"
    lr_mult: 1
  }
  param {
    name: "feat_b"
    lr_mult: 2
  }
  inner_product_param {
    num_output: 2
    weight_filler {
      type: "xavier"
    }
    bias_filler {
      type: "constant"
    }
  }
}
layer {
  name: "loss"
  type: "ContrastiveLoss"
  bottom: "feat"
  bottom: "feat_p"
  bottom: "sim"
  top: "loss"
  contrastive_loss_param {
    margin: 1
  }
}
I1109 19:14:55.807622 27605 layer_factory.hpp:74] Creating layer pair_data
I1109 19:14:55.807651 27605 net.cpp:84] Creating Layer pair_data
I1109 19:14:55.807673 27605 net.cpp:338] pair_data -> pair_data
I1109 19:14:55.807719 27605 net.cpp:338] pair_data -> sim
I1109 19:14:55.807744 27605 net.cpp:113] Setting up pair_data
I1109 19:14:55.828310 27605 db.cpp:20] Opened leveldb ../../examples/siamese/mnist_siamese_train_leveldb
I1109 19:14:55.829015 27605 data_layer.cpp:69] output data size: 64,2,28,28
I1109 19:14:55.829306 27605 net.cpp:120] Top shape: 64 2 28 28 (100352)
I1109 19:14:55.829323 27605 net.cpp:120] Top shape: 64 (64)
I1109 19:14:55.829339 27605 layer_factory.hpp:74] Creating layer slice_pair
I1109 19:14:55.829366 27605 net.cpp:84] Creating Layer slice_pair
I1109 19:14:55.829382 27605 net.cpp:380] slice_pair <- pair_data
I1109 19:14:55.829413 27605 net.cpp:338] slice_pair -> data
I1109 19:14:55.829445 27605 net.cpp:338] slice_pair -> data_p
I1109 19:14:55.829464 27605 net.cpp:113] Setting up slice_pair
I1109 19:14:55.829486 27605 net.cpp:120] Top shape: 64 1 28 28 (50176)
I1109 19:14:55.829499 27605 net.cpp:120] Top shape: 64 1 28 28 (50176)
I1109 19:14:55.829507 27605 layer_factory.hpp:74] Creating layer conv1
I1109 19:14:55.829535 27605 net.cpp:84] Creating Layer conv1
I1109 19:14:55.829545 27605 net.cpp:380] conv1 <- data
I1109 19:14:55.829558 27605 net.cpp:338] conv1 -> conv1
I1109 19:14:55.829581 27605 net.cpp:113] Setting up conv1
I1109 19:14:55.933549 27605 net.cpp:120] Top shape: 64 20 24 24 (737280)
I1109 19:14:55.933594 27605 layer_factory.hpp:74] Creating layer pool1
I1109 19:14:55.933640 27605 net.cpp:84] Creating Layer pool1
I1109 19:14:55.933651 27605 net.cpp:380] pool1 <- conv1
I1109 19:14:55.933665 27605 net.cpp:338] pool1 -> pool1
I1109 19:14:55.933684 27605 net.cpp:113] Setting up pool1
I1109 19:14:55.933866 27605 net.cpp:120] Top shape: 64 20 12 12 (184320)
I1109 19:14:55.933881 27605 layer_factory.hpp:74] Creating layer conv2
I1109 19:14:55.933904 27605 net.cpp:84] Creating Layer conv2
I1109 19:14:55.933917 27605 net.cpp:380] conv2 <- pool1
I1109 19:14:55.933930 27605 net.cpp:338] conv2 -> conv2
I1109 19:14:55.933946 27605 net.cpp:113] Setting up conv2
I1109 19:14:55.934998 27605 net.cpp:120] Top shape: 64 100 8 8 (409600)
I1109 19:14:55.935014 27605 layer_factory.hpp:74] Creating layer pool2
I1109 19:14:55.935030 27605 net.cpp:84] Creating Layer pool2
I1109 19:14:55.935040 27605 net.cpp:380] pool2 <- conv2
I1109 19:14:55.935051 27605 net.cpp:338] pool2 -> pool2
I1109 19:14:55.935068 27605 net.cpp:113] Setting up pool2
I1109 19:14:55.935336 27605 net.cpp:120] Top shape: 64 100 4 4 (102400)
I1109 19:14:55.935348 27605 layer_factory.hpp:74] Creating layer ip1
I1109 19:14:55.935406 27605 net.cpp:84] Creating Layer ip1
I1109 19:14:55.935417 27605 net.cpp:380] ip1 <- pool2
I1109 19:14:55.935433 27605 net.cpp:338] ip1 -> ip1
I1109 19:14:55.935452 27605 net.cpp:113] Setting up ip1
I1109 19:14:55.941351 27605 net.cpp:120] Top shape: 64 500 (32000)
I1109 19:14:55.941388 27605 layer_factory.hpp:74] Creating layer relu1
I1109 19:14:55.941411 27605 net.cpp:84] Creating Layer relu1
I1109 19:14:55.941434 27605 net.cpp:380] relu1 <- ip1
I1109 19:14:55.941450 27605 net.cpp:327] relu1 -> ip1 (in-place)
I1109 19:14:55.941467 27605 net.cpp:113] Setting up relu1
I1109 19:14:55.941699 27605 net.cpp:120] Top shape: 64 500 (32000)
I1109 19:14:55.941710 27605 layer_factory.hpp:74] Creating layer ip2
I1109 19:14:55.941730 27605 net.cpp:84] Creating Layer ip2
I1109 19:14:55.941740 27605 net.cpp:380] ip2 <- ip1
I1109 19:14:55.941756 27605 net.cpp:338] ip2 -> ip2
I1109 19:14:55.941773 27605 net.cpp:113] Setting up ip2
I1109 19:14:55.941849 27605 net.cpp:120] Top shape: 64 10 (640)
I1109 19:14:55.941864 27605 layer_factory.hpp:74] Creating layer feat
I1109 19:14:55.941877 27605 net.cpp:84] Creating Layer feat
I1109 19:14:55.941886 27605 net.cpp:380] feat <- ip2
I1109 19:14:55.941900 27605 net.cpp:338] feat -> feat
I1109 19:14:55.941915 27605 net.cpp:113] Setting up feat
I1109 19:14:55.941941 27605 net.cpp:120] Top shape: 64 2 (128)
I1109 19:14:55.941953 27605 layer_factory.hpp:74] Creating layer conv1_p
I1109 19:14:55.941970 27605 net.cpp:84] Creating Layer conv1_p
I1109 19:14:55.941978 27605 net.cpp:380] conv1_p <- data_p
I1109 19:14:55.941994 27605 net.cpp:338] conv1_p -> conv1_p
I1109 19:14:55.942011 27605 net.cpp:113] Setting up conv1_p
I1109 19:14:55.942777 27605 net.cpp:120] Top shape: 64 20 24 24 (737280)
I1109 19:14:55.942791 27605 net.cpp:424] Sharing parameters 'conv1_w' owned by layer 'conv1', param index 0
I1109 19:14:55.942824 27605 net.cpp:424] Sharing parameters 'conv1_b' owned by layer 'conv1', param index 1
I1109 19:14:55.942837 27605 layer_factory.hpp:74] Creating layer pool1_p
I1109 19:14:55.942850 27605 net.cpp:84] Creating Layer pool1_p
I1109 19:14:55.942859 27605 net.cpp:380] pool1_p <- conv1_p
I1109 19:14:55.942872 27605 net.cpp:338] pool1_p -> pool1_p
I1109 19:14:55.942886 27605 net.cpp:113] Setting up pool1_p
I1109 19:14:55.943156 27605 net.cpp:120] Top shape: 64 20 12 12 (184320)
I1109 19:14:55.943168 27605 layer_factory.hpp:74] Creating layer conv2_p
I1109 19:14:55.943186 27605 net.cpp:84] Creating Layer conv2_p
I1109 19:14:55.943197 27605 net.cpp:380] conv2_p <- pool1_p
I1109 19:14:55.943209 27605 net.cpp:338] conv2_p -> conv2_p
I1109 19:14:55.943229 27605 net.cpp:113] Setting up conv2_p
I1109 19:14:55.944252 27605 net.cpp:120] Top shape: 64 100 8 8 (409600)
I1109 19:14:55.944283 27605 net.cpp:424] Sharing parameters 'conv2_w' owned by layer 'conv2', param index 0
I1109 19:14:55.944309 27605 net.cpp:424] Sharing parameters 'conv2_b' owned by layer 'conv2', param index 1
I1109 19:14:55.944322 27605 layer_factory.hpp:74] Creating layer pool2_p
I1109 19:14:55.944344 27605 net.cpp:84] Creating Layer pool2_p
I1109 19:14:55.944355 27605 net.cpp:380] pool2_p <- conv2_p
I1109 19:14:55.944370 27605 net.cpp:338] pool2_p -> pool2_p
I1109 19:14:55.944391 27605 net.cpp:113] Setting up pool2_p
I1109 19:14:55.944686 27605 net.cpp:120] Top shape: 64 100 4 4 (102400)
I1109 19:14:55.944700 27605 layer_factory.hpp:74] Creating layer ip1_p
I1109 19:14:55.944718 27605 net.cpp:84] Creating Layer ip1_p
I1109 19:14:55.944730 27605 net.cpp:380] ip1_p <- pool2_p
I1109 19:14:55.944741 27605 net.cpp:338] ip1_p -> ip1_p
I1109 19:14:55.944757 27605 net.cpp:113] Setting up ip1_p
I1109 19:14:55.950462 27605 net.cpp:120] Top shape: 64 500 (32000)
I1109 19:14:55.950492 27605 net.cpp:424] Sharing parameters 'ip1_w' owned by layer 'ip1', param index 0
I1109 19:14:55.950779 27605 net.cpp:424] Sharing parameters 'ip1_b' owned by layer 'ip1', param index 1
I1109 19:14:55.950793 27605 layer_factory.hpp:74] Creating layer relu1_p
I1109 19:14:55.950809 27605 net.cpp:84] Creating Layer relu1_p
I1109 19:14:55.950841 27605 net.cpp:380] relu1_p <- ip1_p
I1109 19:14:55.950862 27605 net.cpp:327] relu1_p -> ip1_p (in-place)
I1109 19:14:55.950880 27605 net.cpp:113] Setting up relu1_p
I1109 19:14:55.951093 27605 net.cpp:120] Top shape: 64 500 (32000)
I1109 19:14:55.951105 27605 layer_factory.hpp:74] Creating layer ip2_p
I1109 19:14:55.951128 27605 net.cpp:84] Creating Layer ip2_p
I1109 19:14:55.951138 27605 net.cpp:380] ip2_p <- ip1_p
I1109 19:14:55.951151 27605 net.cpp:338] ip2_p -> ip2_p
I1109 19:14:55.951170 27605 net.cpp:113] Setting up ip2_p
I1109 19:14:55.951223 27605 net.cpp:120] Top shape: 64 10 (640)
I1109 19:14:55.951238 27605 net.cpp:424] Sharing parameters 'ip2_w' owned by layer 'ip2', param index 0
I1109 19:14:55.951249 27605 net.cpp:424] Sharing parameters 'ip2_b' owned by layer 'ip2', param index 1
I1109 19:14:55.951259 27605 layer_factory.hpp:74] Creating layer feat_p
I1109 19:14:55.951273 27605 net.cpp:84] Creating Layer feat_p
I1109 19:14:55.951282 27605 net.cpp:380] feat_p <- ip2_p
I1109 19:14:55.951295 27605 net.cpp:338] feat_p -> feat_p
I1109 19:14:55.951310 27605 net.cpp:113] Setting up feat_p
I1109 19:14:55.951331 27605 net.cpp:120] Top shape: 64 2 (128)
I1109 19:14:55.951342 27605 net.cpp:424] Sharing parameters 'feat_w' owned by layer 'feat', param index 0
I1109 19:14:55.951352 27605 net.cpp:424] Sharing parameters 'feat_b' owned by layer 'feat', param index 1
I1109 19:14:55.951361 27605 layer_factory.hpp:74] Creating layer loss
I1109 19:14:55.951380 27605 net.cpp:84] Creating Layer loss
I1109 19:14:55.951390 27605 net.cpp:380] loss <- feat
…
I1109 19:14:55.952383 27605 solver.cpp:156] Creating test net (#0) specified by net file: ../../examples/siamese/mnist_siamese_train_test.prototxt
I1109 19:14:55.952437 27605 net.cpp:257] The NetState phase (1) differed from the phase (0) specified by a rule in layer pair_data
I1109 19:14:55.952663 27605 net.cpp:42] Initializing net from parameters: 
name: "mnist_siamese_train_test"
state {
  phase: TEST
}
layer {
  name: "pair_data"
  type: "Data"
  top: "pair_data"
  top: "sim"
  include {
    phase: TEST
  }
  transform_param {
    scale: 0.00390625
  }
  data_param {
    source: "../../examples/siamese/mnist_siamese_test_leveldb"
    batch_size: 100
  }
}
layer {
  name: "slice_pair"
  type: "Slice"
  bottom: "pair_data"
  top: "data"
  top: "data_p"
  slice_param {
    slice_dim: 1
    slice_point: 1
  }
}
layer {
  name: "conv1"
  type: "Convolution"
  bottom: "data"
  top: "conv1"
  param {
    name: "conv1_w"
    lr_mult: 1
  }
  param {
    name: "conv1_b"
    lr_mult: 2
  }
  convolution_param {
    num_output: 20
    kernel_size: 5
    stride: 1
    weight_filler {
      type: "xavier"
    }
    bias_filler {
      type: "constant"
    }
  }
}
layer {
  name: "pool1"
  type: "Pooling"
  bottom: "conv1"
  top: "pool1"
  pooling_param {
    pool: MAX
    kernel_size: 2
    stride: 2
  }
}
layer {
  name: "conv2"
  type: "Convolution"
  bottom: "pool1"
  top: "conv2"
  param {
    name: "conv2_w"
    lr_mult: 1
  }
  param {
    name: "conv2_b"
    lr_mult: 2
  }
  convolution_param {
    num_output: 100
    kernel_size: 5
    stride: 1
    weight_filler {
      type: "xavier"
    }
    bias_filler {
      type: "constant"
    }
  }
}
layer {
  name: "pool2"
  type: "Pooling"
  bottom: "conv2"
  top: "pool2"
  pooling_param {
    pool: MAX
    kernel_size: 2
    stride: 2
  }
}
layer {
  name: "ip1"
  type: "InnerProduct"
  bottom: "pool2"
  top: "ip1"
  param {
    name: "ip1_w"
    lr_mult: 1
  }
  param {
    name: "ip1_b"
    lr_mult: 2
  }
  inner_product_param {
    num_output: 500
    weight_filler {
      type: "xavier"
    }
    bias_filler {
      type: "constant"
    }
  }
}
layer {
  name: "relu1"
  type: "ReLU"
  bottom: "ip1"
  top: "ip1"
}
layer {
  name: "ip2"
  type: "InnerProduct"
  bottom: "ip1"
  top: "ip2"
  param {
    name: "ip2_w"
    lr_mult: 1
  }
  param {
    name: "ip2_b"
    lr_mult: 2
  }
  inner_product_param {
    num_output: 10
    weight_filler {
      type: "xavier"
    }
    bias_filler {
      type: "constant"
    }
  }
}
layer {
  name: "feat"
  type: "InnerProduct"
  bottom: "ip2"
  top: "feat"
  param {
    name: "feat_w"
    lr_mult: 1
  }
  param {
    name: "feat_b"
    lr_mult: 2
  }
  inner_product_param {
    num_output: 2
    weight_filler {
      type: "xavier"
    }
    bias_filler {
      type: "constant"
    }
  }
}
layer {
  name: "conv1_p"
  type: "Convolution"
  bottom: "data_p"
  top: "conv1_p"
  param {
    name: "conv1_w"
    lr_mult: 1
  }
  param {
    name: "conv1_b"
    lr_mult: 2
  }
  convolution_param {
    num_output: 20
    kernel_size: 5
    stride: 1
    weight_filler {
      type: "xavier"
    }
    bias_filler {
      type: "constant"
    }
  }
}
layer {
  name: "pool1_p"
  type: "Pooling"
  bottom: "conv1_p"
  top: "pool1_p"
  pooling_param {
    pool: MAX
    kernel_size: 2
    stride: 2
  }
}
layer {
  name: "conv2_p"
  type: "Convolution"
  bottom: "pool1_p"
  top: "conv2_p"
  param {
    name: "conv2_w"
    lr_mult: 1
  }
  param {
    name: "conv2_b"
    lr_mult: 2
  }
  convolution_param {
    num_output: 100
    kernel_size: 5
    stride: 1
    weight_filler {
      type: "xavier"
    }
    bias_filler {
      type: "constant"
    }
  }
}
layer {
  name: "pool2_p"
  type: "Pooling"
  bottom: "conv2_p"
  top: "pool2_p"
  pooling_param {
    pool: MAX
    kernel_size: 2
    stride: 2
  }
}
layer {
  name: "ip1_p"
  type: "InnerProduct"
  bottom: "pool2_p"
  top: "ip1_p"
  param {
    name: "ip1_w"
    lr_mult: 1
  }
  param {
    name: "ip1_b"
    lr_mult: 2
  }
  inner_product_param {
    num_output: 500
    weight_filler {
      type: "xavier"
    }
    bias_filler {
      type: "constant"
    }
  }
}
layer {
  name: "relu1_p"
  type: "ReLU"
  bottom: "ip1_p"
  top: "ip1_p"
}
layer {
  name: "ip2_p"
  type: "InnerProduct"
  bottom: "ip1_p"
  top: "ip2_p"
  param {
    name: "ip2_w"
    lr_mult: 1
  }
  param {
    name: "ip2_b"
    lr_mult: 2
  }
  inner_product_param {
    num_output: 10
    weight_filler {
      type: "xavier"
    }
    bias_filler {
      type: "constant"
    }
  }
}
layer {
  name: "feat_p"
  type: "InnerProduct"
  bottom: "ip2_p"
  top: "feat_p"
  param {
    name: "feat_w"
    lr_mult: 1
  }
  param {
    name: "feat_b"
    lr_mult: 2
  }
  inner_product_param {
    num_output: 2
    weight_filler {
      type: "xavier"
    }
    bias_filler {
      type: "constant"
    }
  }
}
layer {
  name: "loss"
  type: "ContrastiveLoss"
  bottom: "feat"
  bottom: "feat_p"
  bottom: "sim"
  top: "loss"
  contrastive_loss_param {
    margin: 1
  }
}
I1109 19:14:55.952816 27605 layer_factory.hpp:74] Creating layer pair_data
I1109 19:14:55.952834 27605 net.cpp:84] Creating Layer pair_data
I1109 19:14:55.952847 27605 net.cpp:338] pair_data -> pair_data
I1109 19:14:55.952865 27605 net.cpp:338] pair_data -> sim
I1109 19:14:55.952882 27605 net.cpp:113] Setting up pair_data
I1109 19:14:55.965952 27605 db.cpp:20] Opened leveldb ../../examples/siamese/mnist_siamese_test_leveldb
I1109 19:14:55.966166 27605 data_layer.cpp:69] output data size: 100,2,28,28
I1109 19:14:55.966435 27605 net.cpp:120] Top shape: 100 2 28 28 (156800)
I1109 19:14:55.966447 27605 net.cpp:120] Top shape: 100 (100)
I1109 19:14:55.966454 27605 layer_factory.hpp:74] Creating layer slice_pair
I1109 19:14:55.966470 27605 net.cpp:84] Creating Layer slice_pair
I1109 19:14:55.966475 27605 net.cpp:380] slice_pair <- pair_data
I1109 19:14:55.966533 27605 net.cpp:338] slice_pair -> data
I1109 19:14:55.966549 27605 net.cpp:338] slice_pair -> data_p
I1109 19:14:55.966558 27605 net.cpp:113] Setting up slice_pair
I1109 19:14:55.966568 27605 net.cpp:120] Top shape: 100 1 28 28 (78400)
I1109 19:14:55.966574 27605 net.cpp:120] Top shape: 100 1 28 28 (78400)
I1109 19:14:55.966579 27605 layer_factory.hpp:74] Creating layer conv1
I1109 19:14:55.966590 27605 net.cpp:84] Creating Layer conv1
I1109 19:14:55.966600 27605 net.cpp:380] conv1 <- data
I1109 19:14:55.966608 27605 net.cpp:338] conv1 -> conv1
I1109 19:14:55.966615 27605 net.cpp:113] Setting up conv1
I1109 19:14:55.967437 27605 net.cpp:120] Top shape: 100 20 24 24 (1152000)
I1109 19:14:55.967454 27605 layer_factory.hpp:74] Creating layer pool1
I1109 19:14:55.967478 27605 net.cpp:84] Creating Layer pool1
I1109 19:14:55.967484 27605 net.cpp:380] pool1 <- conv1
I1109 19:14:55.967492 27605 net.cpp:338] pool1 -> pool1
I1109 19:14:55.967499 27605 net.cpp:113] Setting up pool1
I1109 19:14:55.967779 27605 net.cpp:120] Top shape: 100 20 12 12 (288000)
I1109 19:14:55.967790 27605 layer_factory.hpp:74] Creating layer conv2
I1109 19:14:55.967803 27605 net.cpp:84] Creating Layer conv2
I1109 19:14:55.967809 27605 net.cpp:380] conv2 <- pool1
I1109 19:14:55.967815 27605 net.cpp:338] conv2 -> conv2
I1109 19:14:55.967823 27605 net.cpp:113] Setting up conv2
I1109 19:14:55.968801 27605 net.cpp:120] Top shape: 100 100 8 8 (640000)
I1109 19:14:55.968814 27605 layer_factory.hpp:74] Creating layer pool2
I1109 19:14:55.968823 27605 net.cpp:84] Creating Layer pool2
I1109 19:14:55.968829 27605 net.cpp:380] pool2 <- conv2
I1109 19:14:55.968835 27605 net.cpp:338] pool2 -> pool2
I1109 19:14:55.968842 27605 net.cpp:113] Setting up pool2
I1109 19:14:55.968983 27605 net.cpp:120] Top shape: 100 100 4 4 (160000)
I1109 19:14:55.968993 27605 layer_factory.hpp:74] Creating layer ip1
I1109 19:14:55.969003 27605 net.cpp:84] Creating Layer ip1
I1109 19:14:55.969010 27605 net.cpp:380] ip1 <- pool2
I1109 19:14:55.969018 27605 net.cpp:338] ip1 -> ip1
I1109 19:14:55.969027 27605 net.cpp:113] Setting up ip1
I1109 19:14:55.976694 27605 net.cpp:120] Top shape: 100 500 (50000)
I1109 19:14:55.976738 27605 layer_factory.hpp:74] Creating layer relu1
I1109 19:14:55.976752 27605 net.cpp:84] Creating Layer relu1
I1109 19:14:55.976758 27605 net.cpp:380] relu1 <- ip1
I1109 19:14:55.976766 27605 net.cpp:327] relu1 -> ip1 (in-place)
I1109 19:14:55.976774 27605 net.cpp:113] Setting up relu1
I1109 19:14:55.977215 27605 net.cpp:120] Top shape: 100 500 (50000)
I1109 19:14:55.977226 27605 layer_factory.hpp:74] Creating layer ip2
I1109 19:14:55.977238 27605 net.cpp:84] Creating Layer ip2
I1109 19:14:55.977242 27605 net.cpp:380] ip2 <- ip1
I1109 19:14:55.977277 27605 net.cpp:338] ip2 -> ip2
I1109 19:14:55.977286 27605 net.cpp:113] Setting up ip2
I1109 19:14:55.977342 27605 net.cpp:120] Top shape: 100 10 (1000)
I1109 19:14:55.977351 27605 layer_factory.hpp:74] Creating layer feat
I1109 19:14:55.977360 27605 net.cpp:84] Creating Layer feat
I1109 19:14:55.977365 27605 net.cpp:380] feat <- ip2
I1109 19:14:55.977371 27605 net.cpp:338] feat -> feat
I1109 19:14:55.977378 27605 net.cpp:113] Setting up feat
I1109 19:14:55.977391 27605 net.cpp:120] Top shape: 100 2 (200)
I1109 19:14:55.977401 27605 layer_factory.hpp:74] Creating layer conv1_p
I1109 19:14:55.977411 27605 net.cpp:84] Creating Layer conv1_p
I1109 19:14:55.977414 27605 net.cpp:380] conv1_p <- data_p
I1109 19:14:55.977421 27605 net.cpp:338] conv1_p -> conv1_p
I1109 19:14:55.977428 27605 net.cpp:113] Setting up conv1_p
I1109 19:14:55.978010 27605 net.cpp:120] Top shape: 100 20 24 24 (1152000)
I1109 19:14:55.978023 27605 net.cpp:424] Sharing parameters 'conv1_w' owned by layer 'conv1', param index 0
I1109 19:14:55.978029 27605 net.cpp:424] Sharing parameters 'conv1_b' owned by layer 'conv1', param index 1
I1109 19:14:55.978034 27605 layer_factory.hpp:74] Creating layer pool1_p
I1109 19:14:55.978044 27605 net.cpp:84] Creating Layer pool1_p
I1109 19:14:55.978047 27605 net.cpp:380] pool1_p <- conv1_p
I1109 19:14:55.978055 27605 net.cpp:338] pool1_p -> pool1_p
I1109 19:14:55.978061 27605 net.cpp:113] Setting up pool1_p
I1109 19:14:55.978314 27605 net.cpp:120] Top shape: 100 20 12 12 (288000)
I1109 19:14:55.978324 27605 layer_factory.hpp:74] Creating layer conv2_p
I1109 19:14:55.978335 27605 net.cpp:84] Creating Layer conv2_p
I1109 19:14:55.978340 27605 net.cpp:380] conv2_p <- pool1_p
I1109 19:14:55.978349 27605 net.cpp:338] conv2_p -> conv2_p
I1109 19:14:55.978358 27605 net.cpp:113] Setting up conv2_p
I1109 19:14:55.979490 27605 net.cpp:120] Top shape: 100 100 8 8 (640000)
I1109 19:14:55.979504 27605 net.cpp:424] Sharing parameters 'conv2_w' owned by layer 'conv2', param index 0
I1109 19:14:55.979512 27605 net.cpp:424] Sharing parameters 'conv2_b' owned by layer 'conv2', param index 1
I1109 19:14:55.979519 27605 layer_factory.hpp:74] Creating layer pool2_p
I1109 19:14:55.979528 27605 net.cpp:84] Creating Layer pool2_p
I1109 19:14:55.979533 27605 net.cpp:380] pool2_p <- conv2_p
I1109 19:14:55.979539 27605 net.cpp:338] pool2_p -> pool2_p
I1109 19:14:55.979547 27605 net.cpp:113] Setting up pool2_p
I1109 19:14:55.979672 27605 net.cpp:120] Top shape: 100 100 4 4 (160000)
I1109 19:14:55.979682 27605 layer_factory.hpp:74] Creating layer ip1_p
I1109 19:14:55.979692 27605 net.cpp:84] Creating Layer ip1_p
I1109 19:14:55.979696 27605 net.cpp:380] ip1_p <- pool2_p
I1109 19:14:55.979703 27605 net.cpp:338] ip1_p -> ip1_p
I1109 19:14:55.979712 27605 net.cpp:113] Setting up ip1_p
I1109 19:14:55.985430 27605 net.cpp:120] Top shape: 100 500 (50000)
I1109 19:14:55.985456 27605 net.cpp:424] Sharing parameters 'ip1_w' owned by layer 'ip1', param index 0
I1109 19:14:55.985468 27605 net.cpp:424] Sharing parameters 'ip1_b' owned by layer 'ip1', param index 1
I1109 19:14:55.985474 27605 layer_factory.hpp:74] Creating layer relu1_p
I1109 19:14:55.985486 27605 net.cpp:84] Creating Layer relu1_p
I1109 19:14:55.985492 27605 net.cpp:380] relu1_p <- ip1_p
I1109 19:14:55.985501 27605 net.cpp:327] relu1_p -> ip1_p (in-place)
I1109 19:14:55.985509 27605 net.cpp:113] Setting up relu1_p
I1109 19:14:55.985920 27605 net.cpp:120] Top shape: 100 500 (50000)
I1109 19:14:55.985931 27605 layer_factory.hpp:74] Creating layer ip2_p
I1109 19:14:55.985945 27605 net.cpp:84] Creating Layer ip2_p
I1109 19:14:55.985950 27605 net.cpp:380] ip2_p <- ip1_p
I1109 19:14:55.985957 27605 net.cpp:338] ip2_p -> ip2_p
I1109 19:14:55.985970 27605 net.cpp:113] Setting up ip2_p
I1109 19:14:55.986014 27605 net.cpp:120] Top shape: 100 10 (1000)
I1109 19:14:55.986023 27605 net.cpp:424] Sharing parameters 'ip2_w' owned by layer 'ip2', param index 0
I1109 19:14:55.986029 27605 net.cpp:424] Sharing parameters 'ip2_b' owned by layer 'ip2', param index 1
I1109 19:14:55.986054 27605 layer_factory.hpp:74] Creating layer feat_p
I1109 19:14:55.986063 27605 net.cpp:84] Creating Layer feat_p
I1109 19:14:55.986068 27605 net.cpp:380] feat_p <- ip2_p
I1109 19:14:55.986074 27605 net.cpp:338] feat_p -> feat_p
I1109 19:14:55.986081 27605 net.cpp:113] Setting up feat_p
I1109 19:14:55.986093 27605 net.cpp:120] Top shape: 100 2 (200)
I1109 19:14:55.986099 27605 net.cpp:424] Sharing parameters 'feat_w' owned by layer 'feat', param index 0
I1109 19:14:55.986104 27605 net.cpp:424] Sharing parameters 'feat_b' owned by layer 'feat', param index 1
I1109 19:14:55.986109 27605 layer_factory.hpp:74] Creating layer loss
I1109 19:14:55.986115 27605 net.cpp:84] Creating Layer loss
I1109 19:14:55.986120 27605 net.cpp:380] loss <- feat
…
