…
I1109 09:39:54.640842 17706 solver.cpp:72] Creating training net from net file: /home/eustinova/skaffe-private/examples/siamese/mnist_siamese_train_test.prototxt
I1109 09:39:54.643309 17706 net.cpp:257] The NetState phase (0) differed from the phase (1) specified by a rule in layer pair_data
I1109 09:39:54.643551 17706 net.cpp:42] Initializing net from parameters: 
name: "mnist_siamese_train_test"
state {
  phase: TRAIN
}
layer {
  name: "pair_data"
  type: "Data"
  top: "pair_data"
  top: "sim"
  include {
    phase: TRAIN
  }
  transform_param {
    scale: 0.00390625
  }
  data_param {
    source: "/home/eustinova/skaffe-private/examples/siamese/mnist_siamese_train_leveldb"
    batch_size: 64
  }
}
layer {
  name: "slice_pair"
  type: "Slice"
  bottom: "pair_data"
  top: "data"
  top: "data_p"
  slice_param {
    slice_dim: 1
    slice_point: 1
  }
}
layer {
  name: "conv1"
  type: "Convolution"
  bottom: "data"
  top: "conv1"
  param {
    name: "conv1_w"
    lr_mult: 1
  }
  param {
    name: "conv1_b"
    lr_mult: 2
  }
  convolution_param {
    num_output: 20
    kernel_size: 5
    stride: 1
    weight_filler {
      type: "xavier"
    }
    bias_filler {
      type: "constant"
    }
  }
}
layer {
  name: "pool1"
  type: "Pooling"
  bottom: "conv1"
  top: "pool1"
  pooling_param {
    pool: MAX
    kernel_size: 2
    stride: 2
  }
}
layer {
  name: "conv2"
  type: "Convolution"
  bottom: "pool1"
  top: "conv2"
  param {
    name: "conv2_w"
    lr_mult: 1
  }
  param {
    name: "conv2_b"
    lr_mult: 2
  }
  convolution_param {
    num_output: 100
    kernel_size: 5
    stride: 1
    weight_filler {
      type: "xavier"
    }
    bias_filler {
      type: "constant"
    }
  }
}
layer {
  name: "slice"
  type: "Slice"
  bottom: "conv2"
  top: "conv2_1"
  top: "conv2_2"
  slice_param {
    axis: 1
  }
}
layer {
  name: "bilinear"
  type: "BilinearPatch"
  bottom: "conv2_1"
  bottom: "conv2_2"
  top: "bilinear1"
  bilinear_patch_param {
    patch_h: 2
    patch_w: 2
  }
}
layer {
  name: "conv3"
  type: "Convolution"
  bottom: "bilinear1"
  top: "conv3"
  param {
    name: "conv3_w"
    lr_mult: 1
  }
  param {
    name: "conv3_b"
    lr_mult: 2
  }
  convolution_param {
    num_output: 50
    kernel_size: 1
    stride: 1
    weight_filler {
      type: "xavier"
    }
    bias_filler {
      type: "constant"
    }
  }
}
layer {
  name: "ip1"
  type: "InnerProduct"
  bottom: "conv3"
  top: "ip1"
  param {
    name: "ip1_w"
    lr_mult: 1
  }
  param {
    name: "ip1_b"
    lr_mult: 2
  }
  inner_product_param {
    num_output: 500
    weight_filler {
      type: "xavier"
    }
    bias_filler {
      type: "constant"
    }
  }
}
layer {
  name: "relu1"
  type: "ReLU"
  bottom: "ip1"
  top: "ip1"
}
layer {
  name: "ip2"
  type: "InnerProduct"
  bottom: "ip1"
  top: "ip2"
  param {
    name: "ip2_w"
    lr_mult: 1
  }
  param {
    name: "ip2_b"
    lr_mult: 2
  }
  inner_product_param {
    num_output: 10
    weight_filler {
      type: "xavier"
    }
    bias_filler {
      type: "constant"
    }
  }
}
layer {
  name: "feat"
  type: "InnerProduct"
  bottom: "ip2"
  top: "feat"
  param {
    name: "feat_w"
    lr_mult: 1
  }
  param {
    name: "feat_b"
    lr_mult: 2
  }
  inner_product_param {
    num_output: 2
    weight_filler {
      type: "xavier"
    }
    bias_filler {
      type: "constant"
    }
  }
}
layer {
  name: "conv1_p"
  type: "Convolution"
  bottom: "data_p"
  top: "conv1_p"
  param {
    name: "conv1_w"
    lr_mult: 1
  }
  param {
    name: "conv1_b"
    lr_mult: 2
  }
  convolution_param {
    num_output: 20
    kernel_size: 5
    stride: 1
    weight_filler {
      type: "xavier"
    }
    bias_filler {
      type: "constant"
    }
  }
}
layer {
  name: "pool1_p"
  type: "Pooling"
  bottom: "conv1_p"
  top: "pool1_p"
  pooling_param {
    pool: MAX
    kernel_size: 2
    stride: 2
  }
}
layer {
  name: "conv2_p"
  type: "Convolution"
  bottom: "pool1_p"
  top: "conv2_p"
  param {
    name: "conv2_w"
    lr_mult: 1
  }
  param {
    name: "conv2_b"
    lr_mult: 2
  }
  convolution_param {
    num_output: 100
    kernel_size: 5
    stride: 1
    weight_filler {
      type: "xavier"
    }
    bias_filler {
      type: "constant"
    }
  }
}
layer {
  name: "slice_p"
  type: "Slice"
  bottom: "conv2_p"
  top: "conv2_1_p"
  top: "conv2_2_p"
  slice_param {
    axis: 1
  }
}
layer {
  name: "bilinear_p"
  type: "BilinearPatch"
  bottom: "conv2_1_p"
  bottom: "conv2_2_p"
  top: "bilinear1_p"
  bilinear_patch_param {
    patch_h: 2
    patch_w: 2
  }
}
layer {
  name: "conv3_p"
  type: "Convolution"
  bottom: "bilinear1_p"
  top: "conv3_p"
  param {
    name: "conv3_w"
    lr_mult: 1
  }
  param {
    name: "conv3_b"
    lr_mult: 2
  }
  convolution_param {
    num_output: 50
    kernel_size: 1
    stride: 1
    weight_filler {
      type: "xavier"
    }
    bias_filler {
      type: "constant"
    }
  }
}
layer {
  name: "ip1_p"
  type: "InnerProduct"
  bottom: "conv3_p"
  top: "ip1_p"
  param {
    name: "ip1_w"
    lr_mult: 1
  }
  param {
    name: "ip1_b"
    lr_mult: 2
  }
  inner_product_param {
    num_output: 500
    weight_filler {
      type: "xavier"
    }
    bias_filler {
      type: "constant"
    }
  }
}
layer {
  name: "relu1_p"
  type: "ReLU"
  bottom: "ip1_p"
  top: "ip1_p"
}
layer {
  name: "ip2_p"
  type: "InnerProduct"
  bottom: "ip1_p"
  top: "ip2_p"
  param {
    name: "ip2_w"
    lr_mult: 1
  }
  param {
    name: "ip2_b"
    lr_mult: 2
  }
  inner_product_param {
    num_output: 10
    weight_filler {
      type: "xavier"
    }
    bias_filler {
      type: "constant"
    }
  }
}
layer {
  name: "feat_p"
  type: "InnerProduct"
  bottom: "ip2_p"
  top: "feat_p"
  param {
    name: "feat_w"
    lr_mult: 1
  }
  param {
    name: "feat_b"
    lr_mult: 2
  }
  inner_product_param {
    num_output: 2
    weight_filler {
      type: "xavier"
    }
    bias_filler {
      type: "constant"
    }
  }
}
layer {
  name: "loss"
  type: "ContrastiveLoss"
  bottom: "feat"
  bottom: "feat_p"
  bottom: "sim"
  top: "loss"
  contrastive_loss_param {
    margin: 1
  }
}
I1109 09:39:54.643678 17706 layer_factory.hpp:74] Creating layer pair_data
I1109 09:39:54.643702 17706 net.cpp:84] Creating Layer pair_data
I1109 09:39:54.643712 17706 net.cpp:338] pair_data -> pair_data
I1109 09:39:54.643739 17706 net.cpp:338] pair_data -> sim
I1109 09:39:54.643753 17706 net.cpp:113] Setting up pair_data
I1109 09:39:54.654722 17706 db.cpp:20] Opened leveldb /home/eustinova/skaffe-private/examples/siamese/mnist_siamese_train_leveldb
I1109 09:39:54.670999 17706 data_layer.cpp:69] output data size: 64,2,28,28
I1109 09:39:54.671193 17706 net.cpp:120] Top shape: 64 2 28 28 (100352)
I1109 09:39:54.671206 17706 net.cpp:120] Top shape: 64 (64)
I1109 09:39:54.671214 17706 layer_factory.hpp:74] Creating layer slice_pair
I1109 09:39:54.671237 17706 net.cpp:84] Creating Layer slice_pair
I1109 09:39:54.671247 17706 net.cpp:380] slice_pair <- pair_data
I1109 09:39:54.671257 17706 net.cpp:338] slice_pair -> data
I1109 09:39:54.671270 17706 net.cpp:338] slice_pair -> data_p
I1109 09:39:54.671279 17706 net.cpp:113] Setting up slice_pair
I1109 09:39:54.671293 17706 net.cpp:120] Top shape: 64 1 28 28 (50176)
I1109 09:39:54.671299 17706 net.cpp:120] Top shape: 64 1 28 28 (50176)
I1109 09:39:54.671304 17706 layer_factory.hpp:74] Creating layer conv1
I1109 09:39:54.671319 17706 net.cpp:84] Creating Layer conv1
I1109 09:39:54.671325 17706 net.cpp:380] conv1 <- data
I1109 09:39:54.671332 17706 net.cpp:338] conv1 -> conv1
I1109 09:39:54.671344 17706 net.cpp:113] Setting up conv1
I1109 09:39:54.759881 17706 net.cpp:120] Top shape: 64 20 24 24 (737280)
I1109 09:39:54.759938 17706 layer_factory.hpp:74] Creating layer pool1
I1109 09:39:54.759989 17706 net.cpp:84] Creating Layer pool1
I1109 09:39:54.759996 17706 net.cpp:380] pool1 <- conv1
I1109 09:39:54.760005 17706 net.cpp:338] pool1 -> pool1
I1109 09:39:54.760037 17706 net.cpp:113] Setting up pool1
I1109 09:39:54.760175 17706 net.cpp:120] Top shape: 64 20 12 12 (184320)
I1109 09:39:54.760186 17706 layer_factory.hpp:74] Creating layer conv2
I1109 09:39:54.760200 17706 net.cpp:84] Creating Layer conv2
I1109 09:39:54.760206 17706 net.cpp:380] conv2 <- pool1
I1109 09:39:54.760213 17706 net.cpp:338] conv2 -> conv2
I1109 09:39:54.760222 17706 net.cpp:113] Setting up conv2
I1109 09:39:54.761123 17706 net.cpp:120] Top shape: 64 100 8 8 (409600)
I1109 09:39:54.761148 17706 layer_factory.hpp:74] Creating layer slice
I1109 09:39:54.761159 17706 net.cpp:84] Creating Layer slice
I1109 09:39:54.761164 17706 net.cpp:380] slice <- conv2
I1109 09:39:54.761170 17706 net.cpp:338] slice -> conv2_1
I1109 09:39:54.761179 17706 net.cpp:338] slice -> conv2_2
I1109 09:39:54.761188 17706 net.cpp:113] Setting up slice
I1109 09:39:54.761201 17706 net.cpp:120] Top shape: 64 50 8 8 (204800)
I1109 09:39:54.761210 17706 net.cpp:120] Top shape: 64 50 8 8 (204800)
I1109 09:39:54.761215 17706 layer_factory.hpp:74] Creating layer bilinear
I1109 09:39:54.761224 17706 net.cpp:84] Creating Layer bilinear
I1109 09:39:54.761229 17706 net.cpp:380] bilinear <- conv2_1
I1109 09:39:54.761234 17706 net.cpp:380] bilinear <- conv2_2
I1109 09:39:54.761240 17706 net.cpp:338] bilinear -> bilinear1
I1109 09:39:54.761247 17706 net.cpp:113] Setting up bilinear
I1109 09:39:54.761750 17706 net.cpp:120] Top shape: 64 2500 4 4 (2560000)
I1109 09:39:54.761759 17706 layer_factory.hpp:74] Creating layer conv3
I1109 09:39:54.761767 17706 net.cpp:84] Creating Layer conv3
I1109 09:39:54.761772 17706 net.cpp:380] conv3 <- bilinear1
I1109 09:39:54.761780 17706 net.cpp:338] conv3 -> conv3
I1109 09:39:54.761787 17706 net.cpp:113] Setting up conv3
I1109 09:39:54.763151 17706 net.cpp:120] Top shape: 64 50 4 4 (51200)
I1109 09:39:54.763165 17706 layer_factory.hpp:74] Creating layer ip1
I1109 09:39:54.763182 17706 net.cpp:84] Creating Layer ip1
I1109 09:39:54.763188 17706 net.cpp:380] ip1 <- conv3
I1109 09:39:54.763195 17706 net.cpp:338] ip1 -> ip1
I1109 09:39:54.763207 17706 net.cpp:113] Setting up ip1
I1109 09:39:54.765727 17706 net.cpp:120] Top shape: 64 500 (32000)
I1109 09:39:54.765738 17706 layer_factory.hpp:74] Creating layer relu1
I1109 09:39:54.765746 17706 net.cpp:84] Creating Layer relu1
I1109 09:39:54.765758 17706 net.cpp:380] relu1 <- ip1
I1109 09:39:54.765763 17706 net.cpp:327] relu1 -> ip1 (in-place)
I1109 09:39:54.765769 17706 net.cpp:113] Setting up relu1
I1109 09:39:54.766013 17706 net.cpp:120] Top shape: 64 500 (32000)
I1109 09:39:54.766023 17706 layer_factory.hpp:74] Creating layer ip2
I1109 09:39:54.766034 17706 net.cpp:84] Creating Layer ip2
I1109 09:39:54.766041 17706 net.cpp:380] ip2 <- ip1
I1109 09:39:54.766047 17706 net.cpp:338] ip2 -> ip2
I1109 09:39:54.766055 17706 net.cpp:113] Setting up ip2
I1109 09:39:54.766104 17706 net.cpp:120] Top shape: 64 10 (640)
I1109 09:39:54.766116 17706 layer_factory.hpp:74] Creating layer feat
I1109 09:39:54.766126 17706 net.cpp:84] Creating Layer feat
I1109 09:39:54.766130 17706 net.cpp:380] feat <- ip2
I1109 09:39:54.766139 17706 net.cpp:338] feat -> feat
I1109 09:39:54.766147 17706 net.cpp:113] Setting up feat
I1109 09:39:54.766158 17706 net.cpp:120] Top shape: 64 2 (128)
I1109 09:39:54.766165 17706 layer_factory.hpp:74] Creating layer conv1_p
I1109 09:39:54.766175 17706 net.cpp:84] Creating Layer conv1_p
I1109 09:39:54.766181 17706 net.cpp:380] conv1_p <- data_p
I1109 09:39:54.766188 17706 net.cpp:338] conv1_p -> conv1_p
I1109 09:39:54.766196 17706 net.cpp:113] Setting up conv1_p
I1109 09:39:54.766701 17706 net.cpp:120] Top shape: 64 20 24 24 (737280)
I1109 09:39:54.766713 17706 net.cpp:424] Sharing parameters 'conv1_w' owned by layer 'conv1', param index 0
I1109 09:39:54.766721 17706 net.cpp:424] Sharing parameters 'conv1_b' owned by layer 'conv1', param index 1
I1109 09:39:54.766738 17706 layer_factory.hpp:74] Creating layer pool1_p
I1109 09:39:54.766746 17706 net.cpp:84] Creating Layer pool1_p
I1109 09:39:54.766752 17706 net.cpp:380] pool1_p <- conv1_p
I1109 09:39:54.766759 17706 net.cpp:338] pool1_p -> pool1_p
I1109 09:39:54.766767 17706 net.cpp:113] Setting up pool1_p
I1109 09:39:54.767011 17706 net.cpp:120] Top shape: 64 20 12 12 (184320)
I1109 09:39:54.767022 17706 layer_factory.hpp:74] Creating layer conv2_p
I1109 09:39:54.767032 17706 net.cpp:84] Creating Layer conv2_p
I1109 09:39:54.767038 17706 net.cpp:380] conv2_p <- pool1_p
I1109 09:39:54.767047 17706 net.cpp:338] conv2_p -> conv2_p
I1109 09:39:54.767057 17706 net.cpp:113] Setting up conv2_p
I1109 09:39:54.767987 17706 net.cpp:120] Top shape: 64 100 8 8 (409600)
I1109 09:39:54.767999 17706 net.cpp:424] Sharing parameters 'conv2_w' owned by layer 'conv2', param index 0
I1109 09:39:54.768005 17706 net.cpp:424] Sharing parameters 'conv2_b' owned by layer 'conv2', param index 1
I1109 09:39:54.768015 17706 layer_factory.hpp:74] Creating layer slice_p
I1109 09:39:54.768023 17706 net.cpp:84] Creating Layer slice_p
I1109 09:39:54.768028 17706 net.cpp:380] slice_p <- conv2_p
I1109 09:39:54.768034 17706 net.cpp:338] slice_p -> conv2_1_p
I1109 09:39:54.768043 17706 net.cpp:338] slice_p -> conv2_2_p
I1109 09:39:54.768052 17706 net.cpp:113] Setting up slice_p
I1109 09:39:54.768059 17706 net.cpp:120] Top shape: 64 50 8 8 (204800)
I1109 09:39:54.768066 17706 net.cpp:120] Top shape: 64 50 8 8 (204800)
I1109 09:39:54.768071 17706 layer_factory.hpp:74] Creating layer bilinear_p
I1109 09:39:54.768079 17706 net.cpp:84] Creating Layer bilinear_p
I1109 09:39:54.768085 17706 net.cpp:380] bilinear_p <- conv2_1_p
I1109 09:39:54.768090 17706 net.cpp:380] bilinear_p <- conv2_2_p
I1109 09:39:54.768096 17706 net.cpp:338] bilinear_p -> bilinear1_p
I1109 09:39:54.768102 17706 net.cpp:113] Setting up bilinear_p
I1109 09:39:54.768580 17706 net.cpp:120] Top shape: 64 2500 4 4 (2560000)
I1109 09:39:54.768586 17706 layer_factory.hpp:74] Creating layer conv3_p
I1109 09:39:54.768594 17706 net.cpp:84] Creating Layer conv3_p
I1109 09:39:54.768600 17706 net.cpp:380] conv3_p <- bilinear1_p
I1109 09:39:54.768607 17706 net.cpp:338] conv3_p -> conv3_p
I1109 09:39:54.768615 17706 net.cpp:113] Setting up conv3_p
I1109 09:39:54.769860 17706 net.cpp:120] Top shape: 64 50 4 4 (51200)
I1109 09:39:54.769873 17706 net.cpp:424] Sharing parameters 'conv3_w' owned by layer 'conv3', param index 0
I1109 09:39:54.769879 17706 net.cpp:424] Sharing parameters 'conv3_b' owned by layer 'conv3', param index 1
I1109 09:39:54.769884 17706 layer_factory.hpp:74] Creating layer ip1_p
I1109 09:39:54.769893 17706 net.cpp:84] Creating Layer ip1_p
I1109 09:39:54.769897 17706 net.cpp:380] ip1_p <- conv3_p
I1109 09:39:54.769904 17706 net.cpp:338] ip1_p -> ip1_p
I1109 09:39:54.769914 17706 net.cpp:113] Setting up ip1_p
I1109 09:39:54.772308 17706 net.cpp:120] Top shape: 64 500 (32000)
I1109 09:39:54.772320 17706 net.cpp:424] Sharing parameters 'ip1_w' owned by layer 'ip1', param index 0
I1109 09:39:54.772326 17706 net.cpp:424] Sharing parameters 'ip1_b' owned by layer 'ip1', param index 1
I1109 09:39:54.772331 17706 layer_factory.hpp:74] Creating layer relu1_p
I1109 09:39:54.772337 17706 net.cpp:84] Creating Layer relu1_p
I1109 09:39:54.772342 17706 net.cpp:380] relu1_p <- ip1_p
I1109 09:39:54.772347 17706 net.cpp:327] relu1_p -> ip1_p (in-place)
I1109 09:39:54.772354 17706 net.cpp:113] Setting up relu1_p
I1109 09:39:54.772580 17706 net.cpp:120] Top shape: 64 500 (32000)
I1109 09:39:54.772590 17706 layer_factory.hpp:74] Creating layer ip2_p
I1109 09:39:54.772599 17706 net.cpp:84] Creating Layer ip2_p
I1109 09:39:54.772604 17706 net.cpp:380] ip2_p <- ip1_p
I1109 09:39:54.772611 17706 net.cpp:338] ip2_p -> ip2_p
I1109 09:39:54.772619 17706 net.cpp:113] Setting up ip2_p
I1109 09:39:54.772658 17706 net.cpp:120] Top shape: 64 10 (640)
I1109 09:39:54.772665 17706 net.cpp:424] Sharing parameters 'ip2_w' owned by layer 'ip2', param index 0
I1109 09:39:54.772671 17706 net.cpp:424] Sharing parameters 'ip2_b' owned by layer 'ip2', param index 1
I1109 09:39:54.772687 17706 layer_factory.hpp:74] Creating layer feat_p
I1109 09:39:54.772696 17706 net.cpp:84] Creating Layer feat_p
I1109 09:39:54.772701 17706 net.cpp:380] feat_p <- ip2_p
I1109 09:39:54.772708 17706 net.cpp:338] feat_p -> feat_p
I1109 09:39:54.772716 17706 net.cpp:113] Setting up feat_p
I1109 09:39:54.772727 17706 net.cpp:120] Top shape: 64 2 (128)
I1109 09:39:54.772732 17706 net.cpp:424] Sharing parameters 'feat_w' owned by layer 'feat', param index 0
I1109 09:39:54.772738 17706 net.cpp:424] Sharing parameters 'feat_b' owned by layer 'feat', param index 1
I1109 09:39:54.772742 17706 layer_factory.hpp:74] Creating layer loss
I1109 09:39:54.772750 17706 net.cpp:84] Creating Layer loss
I1109 09:39:54.772757 17706 net.cpp:380] loss <- feat
…
I1109 09:39:54.773898 17706 solver.cpp:156] Creating test net (#0) specified by net file: /home/eustinova/skaffe-private/examples/siamese/mnist_siamese_train_test.prototxt
I1109 09:39:54.773944 17706 net.cpp:257] The NetState phase (1) differed from the phase (0) specified by a rule in layer pair_data
I1109 09:39:54.774169 17706 net.cpp:42] Initializing net from parameters: 
name: "mnist_siamese_train_test"
state {
  phase: TEST
}
layer {
  name: "pair_data"
  type: "Data"
  top: "pair_data"
  top: "sim"
  include {
    phase: TEST
  }
  transform_param {
    scale: 0.00390625
  }
  data_param {
    source: "/home/eustinova/skaffe-private/examples/siamese/mnist_siamese_test_leveldb"
    batch_size: 100
  }
}
layer {
  name: "slice_pair"
  type: "Slice"
  bottom: "pair_data"
  top: "data"
  top: "data_p"
  slice_param {
    slice_dim: 1
    slice_point: 1
  }
}
layer {
  name: "conv1"
  type: "Convolution"
  bottom: "data"
  top: "conv1"
  param {
    name: "conv1_w"
    lr_mult: 1
  }
  param {
    name: "conv1_b"
    lr_mult: 2
  }
  convolution_param {
    num_output: 20
    kernel_size: 5
    stride: 1
    weight_filler {
      type: "xavier"
    }
    bias_filler {
      type: "constant"
    }
  }
}
layer {
  name: "pool1"
  type: "Pooling"
  bottom: "conv1"
  top: "pool1"
  pooling_param {
    pool: MAX
    kernel_size: 2
    stride: 2
  }
}
layer {
  name: "conv2"
  type: "Convolution"
  bottom: "pool1"
  top: "conv2"
  param {
    name: "conv2_w"
    lr_mult: 1
  }
  param {
    name: "conv2_b"
    lr_mult: 2
  }
  convolution_param {
    num_output: 100
    kernel_size: 5
    stride: 1
    weight_filler {
      type: "xavier"
    }
    bias_filler {
      type: "constant"
    }
  }
}
layer {
  name: "slice"
  type: "Slice"
  bottom: "conv2"
  top: "conv2_1"
  top: "conv2_2"
  slice_param {
    axis: 1
  }
}
layer {
  name: "bilinear"
  type: "BilinearPatch"
  bottom: "conv2_1"
  bottom: "conv2_2"
  top: "bilinear1"
  bilinear_patch_param {
    patch_h: 2
    patch_w: 2
  }
}
layer {
  name: "conv3"
  type: "Convolution"
  bottom: "bilinear1"
  top: "conv3"
  param {
    name: "conv3_w"
    lr_mult: 1
  }
  param {
    name: "conv3_b"
    lr_mult: 2
  }
  convolution_param {
    num_output: 50
    kernel_size: 1
    stride: 1
    weight_filler {
      type: "xavier"
    }
    bias_filler {
      type: "constant"
    }
  }
}
layer {
  name: "ip1"
  type: "InnerProduct"
  bottom: "conv3"
  top: "ip1"
  param {
    name: "ip1_w"
    lr_mult: 1
  }
  param {
    name: "ip1_b"
    lr_mult: 2
  }
  inner_product_param {
    num_output: 500
    weight_filler {
      type: "xavier"
    }
    bias_filler {
      type: "constant"
    }
  }
}
layer {
  name: "relu1"
  type: "ReLU"
  bottom: "ip1"
  top: "ip1"
}
layer {
  name: "ip2"
  type: "InnerProduct"
  bottom: "ip1"
  top: "ip2"
  param {
    name: "ip2_w"
    lr_mult: 1
  }
  param {
    name: "ip2_b"
    lr_mult: 2
  }
  inner_product_param {
    num_output: 10
    weight_filler {
      type: "xavier"
    }
    bias_filler {
      type: "constant"
    }
  }
}
layer {
  name: "feat"
  type: "InnerProduct"
  bottom: "ip2"
  top: "feat"
  param {
    name: "feat_w"
    lr_mult: 1
  }
  param {
    name: "feat_b"
    lr_mult: 2
  }
  inner_product_param {
    num_output: 2
    weight_filler {
      type: "xavier"
    }
    bias_filler {
      type: "constant"
    }
  }
}
layer {
  name: "conv1_p"
  type: "Convolution"
  bottom: "data_p"
  top: "conv1_p"
  param {
    name: "conv1_w"
    lr_mult: 1
  }
  param {
    name: "conv1_b"
    lr_mult: 2
  }
  convolution_param {
    num_output: 20
    kernel_size: 5
    stride: 1
    weight_filler {
      type: "xavier"
    }
    bias_filler {
      type: "constant"
    }
  }
}
layer {
  name: "pool1_p"
  type: "Pooling"
  bottom: "conv1_p"
  top: "pool1_p"
  pooling_param {
    pool: MAX
    kernel_size: 2
    stride: 2
  }
}
layer {
  name: "conv2_p"
  type: "Convolution"
  bottom: "pool1_p"
  top: "conv2_p"
  param {
    name: "conv2_w"
    lr_mult: 1
  }
  param {
    name: "conv2_b"
    lr_mult: 2
  }
  convolution_param {
    num_output: 100
    kernel_size: 5
    stride: 1
    weight_filler {
      type: "xavier"
    }
    bias_filler {
      type: "constant"
    }
  }
}
layer {
  name: "slice_p"
  type: "Slice"
  bottom: "conv2_p"
  top: "conv2_1_p"
  top: "conv2_2_p"
  slice_param {
    axis: 1
  }
}
layer {
  name: "bilinear_p"
  type: "BilinearPatch"
  bottom: "conv2_1_p"
  bottom: "conv2_2_p"
  top: "bilinear1_p"
  bilinear_patch_param {
    patch_h: 2
    patch_w: 2
  }
}
layer {
  name: "conv3_p"
  type: "Convolution"
  bottom: "bilinear1_p"
  top: "conv3_p"
  param {
    name: "conv3_w"
    lr_mult: 1
  }
  param {
    name: "conv3_b"
    lr_mult: 2
  }
  convolution_param {
    num_output: 50
    kernel_size: 1
    stride: 1
    weight_filler {
      type: "xavier"
    }
    bias_filler {
      type: "constant"
    }
  }
}
layer {
  name: "ip1_p"
  type: "InnerProduct"
  bottom: "conv3_p"
  top: "ip1_p"
  param {
    name: "ip1_w"
    lr_mult: 1
  }
  param {
    name: "ip1_b"
    lr_mult: 2
  }
  inner_product_param {
    num_output: 500
    weight_filler {
      type: "xavier"
    }
    bias_filler {
      type: "constant"
    }
  }
}
layer {
  name: "relu1_p"
  type: "ReLU"
  bottom: "ip1_p"
  top: "ip1_p"
}
layer {
  name: "ip2_p"
  type: "InnerProduct"
  bottom: "ip1_p"
  top: "ip2_p"
  param {
    name: "ip2_w"
    lr_mult: 1
  }
  param {
    name: "ip2_b"
    lr_mult: 2
  }
  inner_product_param {
    num_output: 10
    weight_filler {
      type: "xavier"
    }
    bias_filler {
      type: "constant"
    }
  }
}
layer {
  name: "feat_p"
  type: "InnerProduct"
  bottom: "ip2_p"
  top: "feat_p"
  param {
    name: "feat_w"
    lr_mult: 1
  }
  param {
    name: "feat_b"
    lr_mult: 2
  }
  inner_product_param {
    num_output: 2
    weight_filler {
      type: "xavier"
    }
    bias_filler {
      type: "constant"
    }
  }
}
layer {
  name: "loss"
  type: "ContrastiveLoss"
  bottom: "feat"
  bottom: "feat_p"
  bottom: "sim"
  top: "loss"
  contrastive_loss_param {
    margin: 1
  }
}
I1109 09:39:54.774282 17706 layer_factory.hpp:74] Creating layer pair_data
I1109 09:39:54.774298 17706 net.cpp:84] Creating Layer pair_data
I1109 09:39:54.774307 17706 net.cpp:338] pair_data -> pair_data
I1109 09:39:54.774315 17706 net.cpp:338] pair_data -> sim
I1109 09:39:54.774324 17706 net.cpp:113] Setting up pair_data
I1109 09:39:54.783794 17706 db.cpp:20] Opened leveldb /home/eustinova/skaffe-private/examples/siamese/mnist_siamese_test_leveldb
I1109 09:39:54.794605 17706 data_layer.cpp:69] output data size: 100,2,28,28
I1109 09:39:54.794723 17706 net.cpp:120] Top shape: 100 2 28 28 (156800)
I1109 09:39:54.794735 17706 net.cpp:120] Top shape: 100 (100)
I1109 09:39:54.794741 17706 layer_factory.hpp:74] Creating layer slice_pair
I1109 09:39:54.794751 17706 net.cpp:84] Creating Layer slice_pair
I1109 09:39:54.794764 17706 net.cpp:380] slice_pair <- pair_data
I1109 09:39:54.794771 17706 net.cpp:338] slice_pair -> data
I1109 09:39:54.794781 17706 net.cpp:338] slice_pair -> data_p
I1109 09:39:54.794792 17706 net.cpp:113] Setting up slice_pair
I1109 09:39:54.794801 17706 net.cpp:120] Top shape: 100 1 28 28 (78400)
I1109 09:39:54.794816 17706 net.cpp:120] Top shape: 100 1 28 28 (78400)
I1109 09:39:54.794821 17706 layer_factory.hpp:74] Creating layer conv1
I1109 09:39:54.794829 17706 net.cpp:84] Creating Layer conv1
I1109 09:39:54.794834 17706 net.cpp:380] conv1 <- data
I1109 09:39:54.794842 17706 net.cpp:338] conv1 -> conv1
I1109 09:39:54.794849 17706 net.cpp:113] Setting up conv1
I1109 09:39:54.795521 17706 net.cpp:120] Top shape: 100 20 24 24 (1152000)
I1109 09:39:54.795536 17706 layer_factory.hpp:74] Creating layer pool1
I1109 09:39:54.795543 17706 net.cpp:84] Creating Layer pool1
I1109 09:39:54.795548 17706 net.cpp:380] pool1 <- conv1
I1109 09:39:54.795567 17706 net.cpp:338] pool1 -> pool1
I1109 09:39:54.795579 17706 net.cpp:113] Setting up pool1
I1109 09:39:54.795714 17706 net.cpp:120] Top shape: 100 20 12 12 (288000)
I1109 09:39:54.795727 17706 layer_factory.hpp:74] Creating layer conv2
I1109 09:39:54.795737 17706 net.cpp:84] Creating Layer conv2
I1109 09:39:54.795742 17706 net.cpp:380] conv2 <- pool1
I1109 09:39:54.795748 17706 net.cpp:338] conv2 -> conv2
I1109 09:39:54.795756 17706 net.cpp:113] Setting up conv2
I1109 09:39:54.796663 17706 net.cpp:120] Top shape: 100 100 8 8 (640000)
I1109 09:39:54.796679 17706 layer_factory.hpp:74] Creating layer slice
I1109 09:39:54.796685 17706 net.cpp:84] Creating Layer slice
I1109 09:39:54.796690 17706 net.cpp:380] slice <- conv2
I1109 09:39:54.796696 17706 net.cpp:338] slice -> conv2_1
I1109 09:39:54.796705 17706 net.cpp:338] slice -> conv2_2
I1109 09:39:54.796711 17706 net.cpp:113] Setting up slice
I1109 09:39:54.796721 17706 net.cpp:120] Top shape: 100 50 8 8 (320000)
I1109 09:39:54.796730 17706 net.cpp:120] Top shape: 100 50 8 8 (320000)
I1109 09:39:54.796735 17706 layer_factory.hpp:74] Creating layer bilinear
I1109 09:39:54.796741 17706 net.cpp:84] Creating Layer bilinear
I1109 09:39:54.796761 17706 net.cpp:380] bilinear <- conv2_1
I1109 09:39:54.796767 17706 net.cpp:380] bilinear <- conv2_2
I1109 09:39:54.796774 17706 net.cpp:338] bilinear -> bilinear1
I1109 09:39:54.796782 17706 net.cpp:113] Setting up bilinear
I1109 09:39:54.797276 17706 net.cpp:120] Top shape: 100 2500 4 4 (4000000)
I1109 09:39:54.797282 17706 layer_factory.hpp:74] Creating layer conv3
I1109 09:39:54.797291 17706 net.cpp:84] Creating Layer conv3
I1109 09:39:54.797296 17706 net.cpp:380] conv3 <- bilinear1
I1109 09:39:54.797302 17706 net.cpp:338] conv3 -> conv3
I1109 09:39:54.797310 17706 net.cpp:113] Setting up conv3
I1109 09:39:54.798787 17706 net.cpp:120] Top shape: 100 50 4 4 (80000)
I1109 09:39:54.798801 17706 layer_factory.hpp:74] Creating layer ip1
I1109 09:39:54.798813 17706 net.cpp:84] Creating Layer ip1
I1109 09:39:54.798820 17706 net.cpp:380] ip1 <- conv3
I1109 09:39:54.798826 17706 net.cpp:338] ip1 -> ip1
I1109 09:39:54.798835 17706 net.cpp:113] Setting up ip1
I1109 09:39:54.801347 17706 net.cpp:120] Top shape: 100 500 (50000)
I1109 09:39:54.803885 17706 layer_factory.hpp:74] Creating layer relu1
I1109 09:39:54.803895 17706 net.cpp:84] Creating Layer relu1
I1109 09:39:54.803900 17706 net.cpp:380] relu1 <- ip1
I1109 09:39:54.803905 17706 net.cpp:327] relu1 -> ip1 (in-place)
I1109 09:39:54.803912 17706 net.cpp:113] Setting up relu1
I1109 09:39:54.804067 17706 net.cpp:120] Top shape: 100 500 (50000)
I1109 09:39:54.804078 17706 layer_factory.hpp:74] Creating layer ip2
I1109 09:39:54.804088 17706 net.cpp:84] Creating Layer ip2
I1109 09:39:54.804095 17706 net.cpp:380] ip2 <- ip1
I1109 09:39:54.804103 17706 net.cpp:338] ip2 -> ip2
I1109 09:39:54.804112 17706 net.cpp:113] Setting up ip2
I1109 09:39:54.804159 17706 net.cpp:120] Top shape: 100 10 (1000)
I1109 09:39:54.804169 17706 layer_factory.hpp:74] Creating layer feat
I1109 09:39:54.804179 17706 net.cpp:84] Creating Layer feat
I1109 09:39:54.804185 17706 net.cpp:380] feat <- ip2
I1109 09:39:54.804193 17706 net.cpp:338] feat -> feat
I1109 09:39:54.804199 17706 net.cpp:113] Setting up feat
I1109 09:39:54.804211 17706 net.cpp:120] Top shape: 100 2 (200)
I1109 09:39:54.804219 17706 layer_factory.hpp:74] Creating layer conv1_p
I1109 09:39:54.804229 17706 net.cpp:84] Creating Layer conv1_p
I1109 09:39:54.804234 17706 net.cpp:380] conv1_p <- data_p
I1109 09:39:54.804241 17706 net.cpp:338] conv1_p -> conv1_p
I1109 09:39:54.804249 17706 net.cpp:113] Setting up conv1_p
I1109 09:39:54.809108 17706 net.cpp:120] Top shape: 100 20 24 24 (1152000)
I1109 09:39:54.809120 17706 net.cpp:424] Sharing parameters 'conv1_w' owned by layer 'conv1', param index 0
I1109 09:39:54.809128 17706 net.cpp:424] Sharing parameters 'conv1_b' owned by layer 'conv1', param index 1
I1109 09:39:54.809133 17706 layer_factory.hpp:74] Creating layer pool1_p
I1109 09:39:54.809139 17706 net.cpp:84] Creating Layer pool1_p
I1109 09:39:54.809144 17706 net.cpp:380] pool1_p <- conv1_p
I1109 09:39:54.809150 17706 net.cpp:338] pool1_p -> pool1_p
I1109 09:39:54.809159 17706 net.cpp:113] Setting up pool1_p
I1109 09:39:54.809409 17706 net.cpp:120] Top shape: 100 20 12 12 (288000)
I1109 09:39:54.809422 17706 layer_factory.hpp:74] Creating layer conv2_p
I1109 09:39:54.809432 17706 net.cpp:84] Creating Layer conv2_p
I1109 09:39:54.809438 17706 net.cpp:380] conv2_p <- pool1_p
I1109 09:39:54.809447 17706 net.cpp:338] conv2_p -> conv2_p
I1109 09:39:54.809458 17706 net.cpp:113] Setting up conv2_p
I1109 09:39:54.810405 17706 net.cpp:120] Top shape: 100 100 8 8 (640000)
I1109 09:39:54.810417 17706 net.cpp:424] Sharing parameters 'conv2_w' owned by layer 'conv2', param index 0
I1109 09:39:54.810425 17706 net.cpp:424] Sharing parameters 'conv2_b' owned by layer 'conv2', param index 1
I1109 09:39:54.810430 17706 layer_factory.hpp:74] Creating layer slice_p
I1109 09:39:54.810436 17706 net.cpp:84] Creating Layer slice_p
I1109 09:39:54.810441 17706 net.cpp:380] slice_p <- conv2_p
I1109 09:39:54.810447 17706 net.cpp:338] slice_p -> conv2_1_p
I1109 09:39:54.810457 17706 net.cpp:338] slice_p -> conv2_2_p
I1109 09:39:54.810477 17706 net.cpp:113] Setting up slice_p
I1109 09:39:54.810487 17706 net.cpp:120] Top shape: 100 50 8 8 (320000)
I1109 09:39:54.810494 17706 net.cpp:120] Top shape: 100 50 8 8 (320000)
I1109 09:39:54.810499 17706 layer_factory.hpp:74] Creating layer bilinear_p
I1109 09:39:54.810508 17706 net.cpp:84] Creating Layer bilinear_p
I1109 09:39:54.810513 17706 net.cpp:380] bilinear_p <- conv2_1_p
I1109 09:39:54.810519 17706 net.cpp:380] bilinear_p <- conv2_2_p
I1109 09:39:54.810525 17706 net.cpp:338] bilinear_p -> bilinear1_p
I1109 09:39:54.810531 17706 net.cpp:113] Setting up bilinear_p
I1109 09:39:54.811022 17706 net.cpp:120] Top shape: 100 2500 4 4 (4000000)
I1109 09:39:54.811029 17706 layer_factory.hpp:74] Creating layer conv3_p
I1109 09:39:54.811038 17706 net.cpp:84] Creating Layer conv3_p
I1109 09:39:54.811043 17706 net.cpp:380] conv3_p <- bilinear1_p
I1109 09:39:54.811050 17706 net.cpp:338] conv3_p -> conv3_p
I1109 09:39:54.811058 17706 net.cpp:113] Setting up conv3_p
I1109 09:39:54.812331 17706 net.cpp:120] Top shape: 100 50 4 4 (80000)
I1109 09:39:54.812345 17706 net.cpp:424] Sharing parameters 'conv3_w' owned by layer 'conv3', param index 0
I1109 09:39:54.812352 17706 net.cpp:424] Sharing parameters 'conv3_b' owned by layer 'conv3', param index 1
I1109 09:39:54.812357 17706 layer_factory.hpp:74] Creating layer ip1_p
I1109 09:39:54.812366 17706 net.cpp:84] Creating Layer ip1_p
I1109 09:39:54.812371 17706 net.cpp:380] ip1_p <- conv3_p
I1109 09:39:54.812379 17706 net.cpp:338] ip1_p -> ip1_p
I1109 09:39:54.812389 17706 net.cpp:113] Setting up ip1_p
I1109 09:39:54.814765 17706 net.cpp:120] Top shape: 100 500 (50000)
I1109 09:39:54.814775 17706 net.cpp:424] Sharing parameters 'ip1_w' owned by layer 'ip1', param index 0
I1109 09:39:54.814795 17706 net.cpp:424] Sharing parameters 'ip1_b' owned by layer 'ip1', param index 1
I1109 09:39:54.814800 17706 layer_factory.hpp:74] Creating layer relu1_p
I1109 09:39:54.814807 17706 net.cpp:84] Creating Layer relu1_p
I1109 09:39:54.814811 17706 net.cpp:380] relu1_p <- ip1_p
I1109 09:39:54.814818 17706 net.cpp:327] relu1_p -> ip1_p (in-place)
I1109 09:39:54.814824 17706 net.cpp:113] Setting up relu1_p
I1109 09:39:54.815060 17706 net.cpp:120] Top shape: 100 500 (50000)
I1109 09:39:54.815071 17706 layer_factory.hpp:74] Creating layer ip2_p
I1109 09:39:54.815080 17706 net.cpp:84] Creating Layer ip2_p
I1109 09:39:54.815086 17706 net.cpp:380] ip2_p <- ip1_p
I1109 09:39:54.815093 17706 net.cpp:338] ip2_p -> ip2_p
I1109 09:39:54.815101 17706 net.cpp:113] Setting up ip2_p
I1109 09:39:54.815141 17706 net.cpp:120] Top shape: 100 10 (1000)
I1109 09:39:54.815150 17706 net.cpp:424] Sharing parameters 'ip2_w' owned by layer 'ip2', param index 0
I1109 09:39:54.815155 17706 net.cpp:424] Sharing parameters 'ip2_b' owned by layer 'ip2', param index 1
I1109 09:39:54.815160 17706 layer_factory.hpp:74] Creating layer feat_p
I1109 09:39:54.815167 17706 net.cpp:84] Creating Layer feat_p
I1109 09:39:54.815173 17706 net.cpp:380] feat_p <- ip2_p
I1109 09:39:54.815181 17706 net.cpp:338] feat_p -> feat_p
I1109 09:39:54.815187 17706 net.cpp:113] Setting up feat_p
I1109 09:39:54.815198 17706 net.cpp:120] Top shape: 100 2 (200)
I1109 09:39:54.815206 17706 net.cpp:424] Sharing parameters 'feat_w' owned by layer 'feat', param index 0
I1109 09:39:54.815212 17706 net.cpp:424] Sharing parameters 'feat_b' owned by layer 'feat', param index 1
I1109 09:39:54.815215 17706 layer_factory.hpp:74] Creating layer loss
I1109 09:39:54.815222 17706 net.cpp:84] Creating Layer loss
I1109 09:39:54.815227 17706 net.cpp:380] loss <- feat
…
