…
I1111 18:58:30.438940  7437 net.cpp:257] The NetState phase (0) differed from the phase (1) specified by a rule in layer mnist
I1111 18:58:30.438963  7437 net.cpp:257] The NetState phase (0) differed from the phase (1) specified by a rule in layer accuracy
I1111 18:58:30.439055  7437 net.cpp:42] Initializing net from parameters: 
name: "LeNet"
state {
  phase: TRAIN
}
layer {
  name: "mnist"
  type: "Data"
  top: "data"
  top: "label"
  include {
    phase: TRAIN
  }
  transform_param {
    scale: 0.00390625
  }
  data_param {
    source: "examples/mnist/mnist_train_lmdb"
    batch_size: 64
    backend: LMDB
  }
}
layer {
  name: "conv1"
  type: "Convolution"
  bottom: "data"
  top: "conv1"
  param {
    lr_mult: 1
  }
  param {
    lr_mult: 2
  }
  convolution_param {
    num_output: 20
    kernel_size: 5
    stride: 1
    weight_filler {
      type: "xavier"
    }
    bias_filler {
      type: "constant"
    }
  }
}
layer {
  name: "pool1"
  type: "Pooling"
  bottom: "conv1"
  top: "pool1"
  pooling_param {
    pool: MAX
    kernel_size: 2
    stride: 2
  }
}
layer {
  name: "conv2"
  type: "Convolution"
  bottom: "pool1"
  top: "conv2"
  param {
    lr_mult: 1
  }
  param {
    lr_mult: 2
  }
  convolution_param {
    num_output: 50
    kernel_size: 5
    stride: 1
    weight_filler {
      type: "xavier"
    }
    bias_filler {
      type: "constant"
    }
  }
}
layer {
  name: "pool2"
  type: "Pooling"
  bottom: "conv2"
  top: "pool2"
  pooling_param {
    pool: MAX
    kernel_size: 2
    stride: 2
  }
}
layer {
  name: "ip1"
  type: "InnerProduct"
  bottom: "pool2"
  top: "ip1"
  param {
    lr_mult: 1
  }
  param {
    lr_mult: 2
  }
  inner_product_param {
    num_output: 500
    weight_filler {
      type: "xavier"
    }
    bias_filler {
      type: "constant"
    }
  }
}
layer {
  name: "relu1"
  type: "ReLU"
  bottom: "ip1"
  top: "ip1"
}
layer {
  name: "ip2"
  type: "InnerProduct"
  bottom: "ip1"
  top: "ip2"
  param {
    lr_mult: 1
  }
  param {
    lr_mult: 2
  }
  inner_product_param {
    num_output: 10
    weight_filler {
      type: "xavier"
    }
    bias_filler {
      type: "constant"
    }
  }
}
layer {
  name: "loss"
  type: "SoftmaxWithLoss"
  bottom: "ip2"
  bottom: "label"
  top: "loss"
}
I1111 18:58:30.439123  7437 layer_factory.hpp:74] Creating layer mnist
I1111 18:58:30.439146  7437 net.cpp:84] Creating Layer mnist
I1111 18:58:30.439157  7437 net.cpp:338] mnist -> data
I1111 18:58:30.439182  7437 net.cpp:338] mnist -> label
I1111 18:58:30.439194  7437 net.cpp:113] Setting up mnist
I1111 18:58:30.440488  7437 db.cpp:34] Opened lmdb examples/mnist/mnist_train_lmdb
I1111 18:58:30.440927  7437 data_layer.cpp:69] output data size: 64,1,28,28
I1111 18:58:30.441056  7437 net.cpp:120] Top shape: 64 1 28 28 (50176)
I1111 18:58:30.441066  7437 net.cpp:120] Top shape: 64 (64)
I1111 18:58:30.441073  7437 layer_factory.hpp:74] Creating layer conv1
I1111 18:58:30.441083  7437 net.cpp:84] Creating Layer conv1
I1111 18:58:30.441090  7437 net.cpp:380] conv1 <- data
I1111 18:58:30.441103  7437 net.cpp:338] conv1 -> conv1
I1111 18:58:30.441119  7437 net.cpp:113] Setting up conv1
I1111 18:58:30.532249  7437 net.cpp:120] Top shape: 64 20 24 24 (737280)
I1111 18:58:30.532292  7437 layer_factory.hpp:74] Creating layer pool1
I1111 18:58:30.532312  7437 net.cpp:84] Creating Layer pool1
I1111 18:58:30.532318  7437 net.cpp:380] pool1 <- conv1
I1111 18:58:30.532327  7437 net.cpp:338] pool1 -> pool1
I1111 18:58:30.532337  7437 net.cpp:113] Setting up pool1
I1111 18:58:30.532476  7437 net.cpp:120] Top shape: 64 20 12 12 (184320)
I1111 18:58:30.532515  7437 layer_factory.hpp:74] Creating layer conv2
I1111 18:58:30.532527  7437 net.cpp:84] Creating Layer conv2
I1111 18:58:30.532534  7437 net.cpp:380] conv2 <- pool1
I1111 18:58:30.532541  7437 net.cpp:338] conv2 -> conv2
I1111 18:58:30.532553  7437 net.cpp:113] Setting up conv2
I1111 18:58:30.533301  7437 net.cpp:120] Top shape: 64 50 8 8 (204800)
I1111 18:58:30.533318  7437 layer_factory.hpp:74] Creating layer pool2
I1111 18:58:30.533329  7437 net.cpp:84] Creating Layer pool2
I1111 18:58:30.533334  7437 net.cpp:380] pool2 <- conv2
I1111 18:58:30.533340  7437 net.cpp:338] pool2 -> pool2
I1111 18:58:30.533347  7437 net.cpp:113] Setting up pool2
I1111 18:58:30.533598  7437 net.cpp:120] Top shape: 64 50 4 4 (51200)
I1111 18:58:30.533610  7437 layer_factory.hpp:74] Creating layer ip1
I1111 18:58:30.533624  7437 net.cpp:84] Creating Layer ip1
I1111 18:58:30.533630  7437 net.cpp:380] ip1 <- pool2
I1111 18:58:30.533639  7437 net.cpp:338] ip1 -> ip1
I1111 18:58:30.533651  7437 net.cpp:113] Setting up ip1
I1111 18:58:30.536232  7437 net.cpp:120] Top shape: 64 500 (32000)
I1111 18:58:30.536248  7437 layer_factory.hpp:74] Creating layer relu1
I1111 18:58:30.536257  7437 net.cpp:84] Creating Layer relu1
I1111 18:58:30.536262  7437 net.cpp:380] relu1 <- ip1
I1111 18:58:30.536267  7437 net.cpp:327] relu1 -> ip1 (in-place)
I1111 18:58:30.536274  7437 net.cpp:113] Setting up relu1
I1111 18:58:30.536412  7437 net.cpp:120] Top shape: 64 500 (32000)
I1111 18:58:30.536422  7437 layer_factory.hpp:74] Creating layer ip2
I1111 18:58:30.536432  7437 net.cpp:84] Creating Layer ip2
I1111 18:58:30.536438  7437 net.cpp:380] ip2 <- ip1
I1111 18:58:30.536445  7437 net.cpp:338] ip2 -> ip2
I1111 18:58:30.536453  7437 net.cpp:113] Setting up ip2
I1111 18:58:30.536500  7437 net.cpp:120] Top shape: 64 10 (640)
I1111 18:58:30.536510  7437 layer_factory.hpp:74] Creating layer loss
I1111 18:58:30.536519  7437 net.cpp:84] Creating Layer loss
I1111 18:58:30.536525  7437 net.cpp:380] loss <- ip2
I1111 18:58:30.536530  7437 net.cpp:380] loss <- label
I1111 18:58:30.536536  7437 net.cpp:338] loss -> loss
I1111 18:58:30.536545  7437 net.cpp:113] Setting up loss
I1111 18:58:30.536556  7437 layer_factory.hpp:74] Creating layer loss
…
I1111 18:58:30.537336  7437 solver.cpp:156] Creating test net (#0) specified by net file: examples/mnist/lenet_train_test.prototxt
I1111 18:58:30.537369  7437 net.cpp:257] The NetState phase (1) differed from the phase (0) specified by a rule in layer mnist
I1111 18:58:30.537478  7437 net.cpp:42] Initializing net from parameters: 
name: "LeNet"
state {
  phase: TEST
}
layer {
  name: "mnist"
  type: "Data"
  top: "data"
  top: "label"
  include {
    phase: TEST
  }
  transform_param {
    scale: 0.00390625
  }
  data_param {
    source: "examples/mnist/mnist_test_lmdb"
    batch_size: 100
    backend: LMDB
  }
}
layer {
  name: "conv1"
  type: "Convolution"
  bottom: "data"
  top: "conv1"
  param {
    lr_mult: 1
  }
  param {
    lr_mult: 2
  }
  convolution_param {
    num_output: 20
    kernel_size: 5
    stride: 1
    weight_filler {
      type: "xavier"
    }
    bias_filler {
      type: "constant"
    }
  }
}
layer {
  name: "pool1"
  type: "Pooling"
  bottom: "conv1"
  top: "pool1"
  pooling_param {
    pool: MAX
    kernel_size: 2
    stride: 2
  }
}
layer {
  name: "conv2"
  type: "Convolution"
  bottom: "pool1"
  top: "conv2"
  param {
    lr_mult: 1
  }
  param {
    lr_mult: 2
  }
  convolution_param {
    num_output: 50
    kernel_size: 5
    stride: 1
    weight_filler {
      type: "xavier"
    }
    bias_filler {
      type: "constant"
    }
  }
}
layer {
  name: "pool2"
  type: "Pooling"
  bottom: "conv2"
  top: "pool2"
  pooling_param {
    pool: MAX
    kernel_size: 2
    stride: 2
  }
}
layer {
  name: "ip1"
  type: "InnerProduct"
  bottom: "pool2"
  top: "ip1"
  param {
    lr_mult: 1
  }
  param {
    lr_mult: 2
  }
  inner_product_param {
    num_output: 500
    weight_filler {
      type: "xavier"
    }
    bias_filler {
      type: "constant"
    }
  }
}
layer {
  name: "relu1"
  type: "ReLU"
  bottom: "ip1"
  top: "ip1"
}
layer {
  name: "ip2"
  type: "InnerProduct"
  bottom: "ip1"
  top: "ip2"
  param {
    lr_mult: 1
  }
  param {
    lr_mult: 2
  }
  inner_product_param {
    num_output: 10
    weight_filler {
      type: "xavier"
    }
    bias_filler {
      type: "constant"
    }
  }
}
layer {
  name: "accuracy"
  type: "Accuracy"
  bottom: "ip2"
  bottom: "label"
  top: "accuracy"
  include {
    phase: TEST
  }
}
layer {
  name: "loss"
  type: "SoftmaxWithLoss"
  bottom: "ip2"
  bottom: "label"
  top: "loss"
}
I1111 18:58:30.537564  7437 layer_factory.hpp:74] Creating layer mnist
I1111 18:58:30.537577  7437 net.cpp:84] Creating Layer mnist
I1111 18:58:30.537585  7437 net.cpp:338] mnist -> data
I1111 18:58:30.537595  7437 net.cpp:338] mnist -> label
I1111 18:58:30.537605  7437 net.cpp:113] Setting up mnist
I1111 18:58:30.539054  7437 db.cpp:34] Opened lmdb examples/mnist/mnist_test_lmdb
I1111 18:58:30.539477  7437 data_layer.cpp:69] output data size: 100,1,28,28
I1111 18:58:30.539624  7437 net.cpp:120] Top shape: 100 1 28 28 (78400)
I1111 18:58:30.539635  7437 net.cpp:120] Top shape: 100 (100)
I1111 18:58:30.539641  7437 layer_factory.hpp:74] Creating layer label_mnist_1_split
I1111 18:58:30.539650  7437 net.cpp:84] Creating Layer label_mnist_1_split
I1111 18:58:30.539656  7437 net.cpp:380] label_mnist_1_split <- label
I1111 18:58:30.539664  7437 net.cpp:338] label_mnist_1_split -> label_mnist_1_split_0
I1111 18:58:30.539674  7437 net.cpp:338] label_mnist_1_split -> label_mnist_1_split_1
I1111 18:58:30.539683  7437 net.cpp:113] Setting up label_mnist_1_split
I1111 18:58:30.539697  7437 net.cpp:120] Top shape: 100 (100)
I1111 18:58:30.539706  7437 net.cpp:120] Top shape: 100 (100)
I1111 18:58:30.539711  7437 layer_factory.hpp:74] Creating layer conv1
I1111 18:58:30.539724  7437 net.cpp:84] Creating Layer conv1
I1111 18:58:30.539732  7437 net.cpp:380] conv1 <- data
I1111 18:58:30.539739  7437 net.cpp:338] conv1 -> conv1
I1111 18:58:30.539749  7437 net.cpp:113] Setting up conv1
I1111 18:58:30.540452  7437 net.cpp:120] Top shape: 100 20 24 24 (1152000)
I1111 18:58:30.540470  7437 layer_factory.hpp:74] Creating layer pool1
I1111 18:58:30.540480  7437 net.cpp:84] Creating Layer pool1
I1111 18:58:30.540487  7437 net.cpp:380] pool1 <- conv1
I1111 18:58:30.540494  7437 net.cpp:338] pool1 -> pool1
I1111 18:58:30.540503  7437 net.cpp:113] Setting up pool1
I1111 18:58:30.540637  7437 net.cpp:120] Top shape: 100 20 12 12 (288000)
I1111 18:58:30.540647  7437 layer_factory.hpp:74] Creating layer conv2
I1111 18:58:30.540657  7437 net.cpp:84] Creating Layer conv2
I1111 18:58:30.540663  7437 net.cpp:380] conv2 <- pool1
I1111 18:58:30.540671  7437 net.cpp:338] conv2 -> conv2
I1111 18:58:30.540680  7437 net.cpp:113] Setting up conv2
I1111 18:58:30.541502  7437 net.cpp:120] Top shape: 100 50 8 8 (320000)
I1111 18:58:30.541517  7437 layer_factory.hpp:74] Creating layer pool2
I1111 18:58:30.541528  7437 net.cpp:84] Creating Layer pool2
I1111 18:58:30.541548  7437 net.cpp:380] pool2 <- conv2
I1111 18:58:30.541554  7437 net.cpp:338] pool2 -> pool2
I1111 18:58:30.541563  7437 net.cpp:113] Setting up pool2
I1111 18:58:30.541697  7437 net.cpp:120] Top shape: 100 50 4 4 (80000)
I1111 18:58:30.541707  7437 layer_factory.hpp:74] Creating layer ip1
I1111 18:58:30.541718  7437 net.cpp:84] Creating Layer ip1
I1111 18:58:30.541723  7437 net.cpp:380] ip1 <- pool2
I1111 18:58:30.541731  7437 net.cpp:338] ip1 -> ip1
I1111 18:58:30.541740  7437 net.cpp:113] Setting up ip1
I1111 18:58:30.544543  7437 net.cpp:120] Top shape: 100 500 (50000)
I1111 18:58:30.544559  7437 layer_factory.hpp:74] Creating layer relu1
I1111 18:58:30.544566  7437 net.cpp:84] Creating Layer relu1
I1111 18:58:30.544572  7437 net.cpp:380] relu1 <- ip1
I1111 18:58:30.544579  7437 net.cpp:327] relu1 -> ip1 (in-place)
I1111 18:58:30.544585  7437 net.cpp:113] Setting up relu1
I1111 18:58:30.544833  7437 net.cpp:120] Top shape: 100 500 (50000)
I1111 18:58:30.544844  7437 layer_factory.hpp:74] Creating layer ip2
I1111 18:58:30.544855  7437 net.cpp:84] Creating Layer ip2
I1111 18:58:30.544862  7437 net.cpp:380] ip2 <- ip1
I1111 18:58:30.544873  7437 net.cpp:338] ip2 -> ip2
I1111 18:58:30.544883  7437 net.cpp:113] Setting up ip2
I1111 18:58:30.544930  7437 net.cpp:120] Top shape: 100 10 (1000)
I1111 18:58:30.544940  7437 layer_factory.hpp:74] Creating layer ip2_ip2_0_split
I1111 18:58:30.544948  7437 net.cpp:84] Creating Layer ip2_ip2_0_split
I1111 18:58:30.544952  7437 net.cpp:380] ip2_ip2_0_split <- ip2
I1111 18:58:30.544960  7437 net.cpp:338] ip2_ip2_0_split -> ip2_ip2_0_split_0
I1111 18:58:30.544968  7437 net.cpp:338] ip2_ip2_0_split -> ip2_ip2_0_split_1
I1111 18:58:30.544976  7437 net.cpp:113] Setting up ip2_ip2_0_split
I1111 18:58:30.544983  7437 net.cpp:120] Top shape: 100 10 (1000)
I1111 18:58:30.544989  7437 net.cpp:120] Top shape: 100 10 (1000)
I1111 18:58:30.544993  7437 layer_factory.hpp:74] Creating layer accuracy
I1111 18:58:30.545004  7437 net.cpp:84] Creating Layer accuracy
I1111 18:58:30.545011  7437 net.cpp:380] accuracy <- ip2_ip2_0_split_0
I1111 18:58:30.545016  7437 net.cpp:380] accuracy <- label_mnist_1_split_0
I1111 18:58:30.545022  7437 net.cpp:338] accuracy -> accuracy
I1111 18:58:30.545028  7437 net.cpp:113] Setting up accuracy
…
